RGCN/model/trained_model/multi/best_model_rgcn_1688_972-1000.pt (torch, 18696 bytes, 8 tensors)

conv1.h_bias f4 [16]
000000 11 a7 4c 3e 77 71 ec 3d ed 03 1f 3e 81 de b4 3e
       0.19985606 0.11545079 0.15528841 0.35326007
000010 3d 3a 51 3e d7 a6 4b 3e 9a 74 44 3e 6e 7b 00 3e
       0.20432372 0.19887863 0.19185105 0.12547085
000020 90 d5 8b 3d 07 cf fc 3d b3 51 36 3e 72 07 ca 3d
       0.06827843 0.12344175 0.17804603 0.09864701
000030 2c 33 f3 3e 4d fc 30 3d 42 ce ee 3d 2e 3b ce 3d
       0.4749998 0.043209363 0.11660434 0.100698814

conv1.linear_r.W f4 [3, 74, 16]
000000 73 78 11 be 7c 07 39 bd a0 db 05 be 6a 6b e0 bd
       -0.14206104 -0.045173153 -0.13072062 -0.109579876
000010 a1 07 97 bd b4 f3 a3 bd 82 4c 82 be 5f 73 42 be
       -0.07374502 -0.08005467 -0.25448996 -0.18989323
000020 fc 53 8c bd 3d 6c 18 3d d0 35 a4 bd 00 86 c0 bd
       -0.06851956 0.0372126 -0.080180764 -0.094005585
000030 ab a3 16 be 64 1e f1 3c d1 28 84 bd 3c 1e 53 be
       -0.14710872 0.029433437 -0.064530976 -0.20617002
000040 36 93 88 bd 59 5e ef 3d 59 18 7d 3c ee c7 94 3e
       -0.06668703 0.11687917 0.015447699 0.29058784
000050 f3 a0 84 3e 41 00 ec 3d fa 48 9c be 92 97 57 be
       0.25904045 0.11523486 -0.30524427 -0.21053913
000060 11 a9 ad bd 39 ea 81 3d 5e 19 5c be fe 9d 0c bf
       -0.084795125 0.063435026 -0.21494052 -0.54928577
000070 85 ba c2 3e 23 7c 4e be f1 66 1d bb ac e0 7e 3d
       0.38032928 -0.20164542 -0.0024017657 0.062225983
000080 d2 5f 8f be b7 fa 2b be f6 4f 39 be 61 00 2c be
       -0.28002793 -0.16794859 -0.18096909 -0.1679702
000090 44 49 a6 be b5 f8 53 be a8 c4 eb 3e 19 3a 2e be
       -0.32477772 -0.20700343 0.46048474 -0.1701435
0000a0 fc 67 42 be fd 43 3e be 8f 16 3e 3e 63 e0 a2 3d
       -0.1898498 -0.18580623 0.18563293 0.079529546
0000b0 48 26 8f bb 4d 02 34 bf 7e 42 7a be 95 4c 16 be
       -0.004368577 -0.7031601 -0.24439427 -0.14677651
0000c0 1b c4 40 3f f1 f1 2f 3f c4 24 3f 3f 15 c5 5c 3f
       0.75299233 0.6872855 0.74665475 0.86238223
0000d0 76 67 50 3f 20 ac 14 3f 56 78 88 be 5b 15 1f 3f
       0.8140787 0.5807514 -0.2665431 0.6214196
0000e0 c2 1c 32 3f 3e e1 21 3f 54 fa b5 be 6d 9a 19 3f
       0.6957513 0.6323432 -0.35542548 0.6000126
0000f0 49 90 37 3f 82 39 2e 3f e9 5a 38 3f 1e 35 15 3f
       0.71704537 0.680565 0.7201372 0.58284175
000100 c4 86 8f 3e 2a 89 84 3e 49 0e 07 3e ce 20 cb 3e
       0.28032506 0.25885898 0.13189043 0.39673465
000110 cd d2 8d 3e 8a 1d b8 3d b9 0d a5 bf 9e d1 a1 3d
       0.2769989 0.08990009 -1.2894813 0.079013094
000120 4f 88 ed 3d 6b b0 97 3d a9 ea 80 bf e7 99 4e be
       0.115982644 0.07406696 -1.0071613 -0.20175897
000130 7c ad 2c 3f 01 04 aa bf 65 8e 24 3e 13 63 53 3d
       0.67452216 -1.3282472 0.16069944 0.051608156
000140 8a cd a2 be 29 12 98 3b 56 25 a3 be 8a 20 b3 bb
       -0.3179744 0.0046408367 -0.31864423 -0.0054665254
000150 e3 42 71 be c9 dd 59 be 6d 89 23 3f 9d 67 1d 3e
       -0.23560672 -0.2127601 0.6388157 0.15371557
000160 fe 97 f0 3d 66 d4 27 3d bd f5 26 3f a4 1f c6 3d
       0.1174774 0.040974043 0.65218717 0.09674004
000170 f7 8b 44 3c ab 25 a6 bc 06 2e 03 3d 4d 26 f6 3c
       0.011996261 -0.020281633 0.032026313 0.03004756
000180 72 24 b5 be 2f 28 bb be 30 06 c4 be bb bb 6e bd
       -0.35379368 -0.36554095 -0.3828597 -0.058284502
000190 be 7b ac be e6 3f ee be 16 1a a4 3d 18 8e 29 bf
       -0.33688158 -0.46533126 0.08012788 -0.6623244
0001a0 03 24 9b be 93 11 bb be ae 77 46 3e 41 94 08 bf
       -0.30300912 -0.36536846 0.19381592 -0.5335122
0001b0 06 0d 06 be a0 ac 8c bd 90 46 d2 be 90 d0 89 be
       -0.13090906 -0.06868863 -0.4106946 -0.26916933
0001c0 21 13 9a bc 78 c2 2c 3d 15 d7 36 3e 19 70 93 bc
       -0.01880795 0.042177647 0.17855485 -0.017997788
0001d0 dc 67 56 3e db 3d 21 3d 1b 37 84 3e 75 22 08 bd
       0.20938057 0.03936563 0.25823292 -0.033235986
0001e0 a7 fd bd 3d 8d 62 4a bd 67 b9 11 3d 81 fc b3 bd
       0.09276896 -0.04941039 0.035577204 -0.08788396
0001f0 97 01 75 bd d6 4c 2a be f6 ef 35 3b 20 65 fa ba
       -0.05981597 -0.16630873 0.0027761436 -0.0019103624
000200 84 e4 38 3e 94 04 3f be a5 89 7c 3e e6 50 ca 3d
       0.18055922 -0.1865409 0.24661882 0.098787114
000210 71 04 f0 3d b4 26 45 3e 63 ad 15 3d 02 6b 67 be
       0.11719597 0.19253045 0.036542308 -0.22599414
000220 fa b4 04 be bb 17 92 bd ab 59 1c be 85 51 99 bd
       -0.12959662 -0.071334325 -0.1526858 -0.07486252
000230 6d 69 ce 3d c8 8d 5c bd e4 8d 2a be bc 19 94 bd
       0.10078702 -0.05384615 -0.1665569 -0.07231471
000240 ed c3 9c 3d 46 0f 9c 3d 85 11 02 3e 7c a7 43 3d
       0.076545574 0.07620101 0.12701996 0.047767147
000250 04 80 9c bc 2f cd 2a 3e c7 f2 5b 3e c3 6c 25 3d
       -0.019104011 0.16679834 0.21479331 0.040386926
000260 25 7b 1a 3d cf 75 bb 3d 3f 33 69 3c d9 bf 10 3f
       0.037715096 0.091533296 0.014233409 0.56542736
000270 d8 09 57 3d 8f 77 77 be a5 3e 64 3e cd d0 d0 bd
       0.052499622 -0.24166702 0.22289522 -0.101960756
000280 f1 7f 26 3f de eb aa 3d a5 34 36 3f 83 0e bb be
       0.65038973 0.08345769 0.7117408 -0.3653451
000290 04 28 d2 be ae cc 0e 3f 24 2f 09 3d d7 c1 f5 be
       -0.41046154 0.55781066 0.033492222 -0.4799945
0002a0 15 32 0e 3f 0d 12 ac 3e 50 6f 78 3e 1b e9 15 be
       0.5554517 0.33607522 0.24261212 -0.14639704
0002b0 59 e7 61 be a3 9f 48 3f ee 6b 30 3f 5a 5c 30 3d
       -0.22060908 0.78368586 0.6891469 0.043056823
0002c0 75 a6 e4 bc 36 4c d7 bd c2 c6 f1 bd ec 16 ca 3f
       -0.027911404 -0.10512583 -0.11805488 1.5788245
0002d0 24 28 cb 3c d1 dd c6 bd c9 3f aa bf 40 22 c9 3c
       0.024799414 -0.09710277 -1.3300716 0.024552464
0002e0 4f a9 0c bc 8e fc f2 bb 99 c9 49 bf 43 9b 03 bc
       -0.008585288 -0.007415361 -0.7882324 -0.008032623
0002f0 c9 a3 d4 3f 04 20 88 3d 6e 4c f5 3a 1b 0f 7b bd
       1.6612483 0.066467315 0.0018714794 -0.061293703
000300 ba 63 a2 bc 43 bf 5a 3d 9e 16 e2 bd 2b 9f b3 be
       -0.019822944 0.053405058 -0.1103947 -0.35082373
000310 89 04 89 3d f2 43 92 3c 94 d5 70 bf 98 39 ad bd
       0.06690318 0.017854664 -0.94075894 -0.08458251
000320 3c 38 86 bd ff 0c 07 3b 4c fe 33 3f f4 cd 95 3e
       -0.065536946 0.0020607112 0.703099 0.29258692
000330 84 84 e8 be 2e a8 e2 3d 77 0a 12 bc 7d ed 93 bd
       -0.454136 0.11067234 -0.008913628 -0.07223032
000340 aa ba 31 be 5b 6a 88 bd 96 6a c3 be c4 10 05 be
       -0.17356363 -0.06660911 -0.38167256 -0.12994677
000350 16 5c a5 be d8 ed ee bd 30 93 c0 3e 56 47 50 bf
       -0.32296818 -0.11666459 0.37612295 -0.8135885
000360 8b 44 58 bf ab c0 0c be 07 13 c5 bd 7f e8 4b 3f
       -0.8447959 -0.13745372 -0.0962277 0.79651636
000370 dd f0 81 be 0e 39 92 bf 48 f3 1a be 6e b1 48 bd
       -0.25379077 -1.1423662 -0.15131867 -0.048997335
000380 ef 13 6b bf 62 2f 9b 3e dc 80 c1 3e dd eb 1b 3c
       -0.9182729 0.30309588 0.37793624 0.009516683
000390 0d e8 d2 3c a1 2c e3 3e c1 b8 0a be db 6f 8f bf
       0.025745416 0.44369987 -0.1354704 -1.120601
0003a0 0c 53 68 bf d7 17 7d bf 86 41 40 bb ce 9d e4 3f
       -0.9075172 -0.988645 -0.002933593 1.7860658
0003b0 58 17 89 bd 6c 93 92 3f 63 74 0c 3f bd b2 f8 3e
       -0.066939056 1.145124 0.5486509 0.48573866
0003c0 fb bc b9 3c 90 8d 75 3d 1f d2 18 be 6e 36 b3 3e
       0.02267312 0.059949458 -0.14923905 0.35002464
0003d0 6d cd ea bd 75 18 45 be 99 39 3d 3f 17 a4 2b 3e
       -0.11464963 -0.19247611 0.7391601 0.16761814
0003e0 86 d7 39 3c 65 30 0e 3e fd 4c 03 3f 20 d9 ca 3e
       0.011342889 0.13885649 0.5128935 0.39618778
0003f0 ac de 0f 3f 03 6b ad 3d df a6 d4 bd 66 0e 0a 3e
       0.56199145 0.084676765 -0.10383391 0.13482055

conv1.linear_r.coeff f4 [3, 3]
000000 47 90 ec 3f 99 83 e7 bf e7 ae 05 40 8a e0 cf bf
       1.848153 -1.8087035 2.0888002 -1.6240399
000010 1a d2 18 40 b4 34 f9 bf c0 2c 67 3f 1b b1 61 3e
       2.3878236 -1.9469209 0.9030266 0.22040217
000020 6e d1 70 bf
       -0.94069564

conv2.h_bias f4 [4]
000000 28 4a c8 be 67 99 92 bd 32 0e 9b 3e 67 85 75 3d
       -0.39119077 -0.071581654 0.30284268 0.059941676

conv2.linear_r.W f4 [3, 16, 4]
000000 3f 11 27 bf 5a 3f 5f 3f 3e 3d 4f 3e 72 32 4f 3f
       -0.6526069 0.8720604 0.20238206 0.8093635
000010 72 7a c0 be 7d d7 0b 3f 81 05 2f 3e ea 94 14 3f
       -0.37593418 0.54625684 0.17091943 0.58039725
000020 1d 3e 33 be de 4b 77 3e ee 1a 69 3e bc bd b6 3e
       -0.17504163 0.24150035 0.22764179 0.3569163
000030 a6 d2 42 3e bc 38 27 3f 00 83 d1 bc 8b d3 d7 3e
       0.19025669 0.65320945 -0.025575161 0.42153582
000040 56 33 cb 3c 4b 57 ef 3e 53 f1 8f be 9f 4f df 3e
       0.024804752 0.46746287 -0.28113803 0.43615434
000050 bc 4d b0 be 04 f5 15 3f 7e f9 cf 3e 3b 34 1b 3f
       -0.34434307 0.5857699 0.40620035 0.6062657
000060 13 55 a7 3e 07 a5 35 bf e7 9e 02 3f 20 b0 3e bf
       0.32682094 -0.70954937 0.51023716 -0.74487495
000070 6d a6 b2 be 6e 27 f4 3e 31 a7 0c 3f 52 8b 25 3f
       -0.34892598 0.47686332 0.54942614 0.6466571
000080 ed 3e 01 bf 9b 9c 35 3e f0 b6 0c 3f 58 2b 13 3f
       -0.5048664 0.17735521 0.5496664 0.5748801
000090 5c a0 3f bf 31 5b 2c 3f 6c 0c 12 3f f1 70 28 3f
       -0.74854064 0.6732665 0.57050204 0.65797335
0000a0 16 7f 7b 3f 2c 38 10 bf 13 33 88 be fb 55 51 bf
       0.9824079 -0.5633571 -0.26601467 -0.8177182
0000b0 f9 30 89 be c9 ba 0a bf 40 ec 4c 3f 94 66 0e bc
       -0.26795176 -0.5419126 0.8004799 -0.008691449
0000c0 f2 17 d7 3b 4b eb 44 3f 1c a0 13 bf 11 70 c6 3e
       0.006564134 0.7692153 -0.5766618 0.38757375
0000d0 1d 14 83 bf 8c 29 cd 3e c4 47 86 3f cb 92 30 3f
       -1.0240513 0.4007076 1.0490651 0.6897399
0000e0 bc 3c da be 03 76 de 3e 5b 05 4c 3f 1f 87 8e 3e
       -0.42624462 0.4344941 0.7969567 0.27837464
0000f0 08 7b 48 be 52 13 0d 3e f5 0f 26 3e 6b 7c 01 3f
       -0.19578183 0.13776901 0.16217025 0.5058047
000100 5b da d4 be 50 99 bf 3e df 45 89 3e f6 9a 3b 3e
       -0.41572842 0.37421656 0.2681112 0.18320832
000110 75 67 4a 3d cb 59 45 3e 8d 16 0f 3d 4b a6 df 3e
       0.04941507 0.19272535 0.034933615 0.4368156
000120 9c 58 14 be 68 c9 dc 3e a5 36 af 3e 4a 6d 01 3f
       -0.14486927 0.4312241 0.34221378 0.50557387
000130 f1 70 b2 3e 5a 4b cf 3d 42 0c 6b bd 96 5d 3e 3d
       0.34851792 0.10121794 -0.057384737 0.04647597
000140 2d e2 32 be 08 4d 3e 3f 94 f5 f2 bd 31 9d 5e 3e
       -0.17469092 0.7433629 -0.118632466 0.21739651
000150 fc 19 d9 be 60 20 8a 3e c3 47 98 bd fb ea 9f 3e
       -0.42402637 0.26977825 -0.074355625 0.31233963
000160 72 0d c5 3e 90 92 10 bf 1a c4 70 3e 51 5f 12 bf
       0.3848682 -0.56473637 0.23512307 -0.5717669
000170 d3 f3 9e 3d ec 42 b4 3d 97 50 ff 3e 6f 4d b2 3e
       0.077613495 0.08801827 0.49866173 0.34824702
000180 3c 25 f5 be a7 d4 92 3e cc 20 36 3e b1 15 17 3f
       -0.4787997 0.28677866 0.17785949 0.59017473
000190 fb 40 8b be 25 43 0c 3f a6 26 0b 3f 9b 57 dd 3e
       -0.27198014 0.54789954 0.5435585 0.432309
0001a0 bc 81 39 3f 56 0c df be 4c 67 24 be ea a4 1c bf
       0.72463584 -0.435641 -0.1605503 -0.6118914
0001b0 09 5e ed be 1c c9 d1 be c8 d1 6a 3f ad 0b 39 3d
       -0.46360806 -0.40973747 0.9172635 0.04517715
0001c0 db 62 df 3e 30 75 d9 3e f9 6f a0 be 54 ad 41 3e
       0.43630108 0.4247222 -0.31335428 0.18913776
0001d0 27 1f b4 bf 64 fe 75 3e 0b 95 b8 3f 8c 33 2e 3f
       -1.4072007 0.24022824 1.4420484 0.68047404
0001e0 8c bd 9a be 2a 00 1b 3e fe f8 3f 3e 6a d3 f8 3d
       -0.30222738 0.15136781 0.18747327 0.12149699
0001f0 5d 2f 07 3e 18 97 12 3e 5d 06 78 3e bb 4d 83 3d
       0.13201661 0.1431545 0.24221177 0.0641131
000200 96 36 51 bd 87 87 1d bf 41 50 c3 3d dd d7 b9 be
       -0.051077448 -0.61534923 0.095367916 -0.36297503
000210 a8 65 56 3e a7 3d ae be 76 11 46 be 72 8c 9a be
       0.20937216 -0.34031412 -0.19342598 -0.30185276
000220 dd 2f 49 3d f5 ad 68 be a9 4b 11 3d 8c 50 04 bf
       0.04911791 -0.2272261 0.035472546 -0.51685405
000230 7a a4 a7 be 55 03 83 bd 87 c5 b1 3e 6f a7 92 be
       -0.32742673 -0.0639712 0.34721014 -0.28643367
000240 ad 4b b9 bd 80 fa f5 be 5c de ca bd 02 ed e1 be
       -0.09047637 -0.4804268 -0.09905693 -0.44126135
000250 5e 12 1b 3d ae 7d e2 be de 43 ea 3d c2 d6 f0 be
       0.037859313 -0.4423651 0.11438726 -0.47038847
000260 38 4d 38 bf a6 f8 63 3f 57 cd 4b bd 12 12 55 3f
       -0.71992826 0.8905128 -0.049756374 0.832307
000270 25 a5 6e 3d 95 c7 f8 bd 60 c9 02 bf 82 a4 33 be
       0.058262963 -0.12147442 -0.51088524 -0.17543224
000280 e6 a3 5c 3e 7d f5 01 bf 20 e9 bb bd 4d b6 15 bf
       0.21546897 -0.5076521 -0.091753244 -0.58481294
000290 80 88 10 3e 59 17 47 be 61 33 31 be b6 23 80 be
       0.1411457 -0.194425 -0.17304756 -0.25027245
0002a0 39 38 20 bf bb 4b 3f 3f 16 13 01 be 3d 3f 2e 3f
       -0.6258579 0.7472493 -0.12604937 0.68065244
0002b0 7e ef 03 3f 77 e8 08 3f 0a b6 63 bf 83 00 89 3d
       0.5153731 0.53479713 -0.88949645 0.06689551
0002c0 b5 fd fd be cf b6 ed be bc 3c c6 3e a1 6a 06 be
       -0.49607626 -0.46428534 0.38718212 -0.13126613
0002d0 d3 78 b6 3f ef 8b 28 bf 90 3d 99 bf c2 7e 0c bf
       1.4255623 -0.6583852 -1.1971912 -0.5488092
0002e0 03 ff 83 3e ed d3 c1 be cc ed ca be 6a dc f3 be
       0.25780496 -0.37857 -0.3963455 -0.476291
0002f0 06 26 32 3e 8e 85 91 bd ef e4 95 be 80 96 ad be
       0.17397317 -0.07105552 -0.29276225 -0.33903885

conv2.linear_r.coeff f4 [3, 3]
000000 09 ca 84 bf 4a c4 e9 bf ff bc 48 40 0c 44 f4 3e
       -1.0374156 -1.8263028 3.1365354 0.47708166
000010 4b a9 6e 3e f6 24 ec bb 5c e3 7a 3f f9 f4 4a be
       0.23306768 -0.0072065545 0.9800317 -0.19820012
000020 75 d9 0a 40
       2.1695225

fc.weight f4 [4, 4]
000000 be ca bf 3f c4 07 13 bf 49 0d b9 bd 3c fd 3b bf
       1.4983747 -0.57433724 -0.09035737 -0.7343328
000010 df d1 bd bf d6 5d 54 be f2 cd f6 3e 0d 87 17 be
       -1.4829673 -0.2073892 0.48204 -0.14797612
000020 08 03 58 3f 6c d2 0a 40 63 e1 09 bf 9d 43 3c 3f
       0.84379625 2.1690931 -0.5385954 0.7354067
000030 cb f5 89 3f 0e 9c 31 3f 19 42 c5 3f 7f ac de 3f
       1.0778135 0.69378746 1.5410796 1.7396392

fc.bias f4 [4]
000000 e2 56 e7 3d 3a ae 4e 3f 81 ba b7 be 52 66 72 bf
       0.112958685 0.807346 -0.3588448 -0.9468738
