RGCN/model/trained_model/multi/best_model_rgcn_1688_980-1000.pt (torch, 18696 bytes, 8 tensors)

conv1.h_bias f4 [16]
0.32392976 0.3684088 0.11518013 0.08363212 0.15697564 0.1267524 0.17009507 0.12677652
0.10703361 0.16198686 0.21352988 0.10887425 0.21690534 0.15377362 0.20015873 0.02012738
00000000: 1fda a53e 14a0 bc3e 8fe3 eb3d 5147 ab3d
00000010: 39be 203e 62cb 013e 672d 2e3e b4d1 013e
00000020: 7034 db3d e2df 253e 94a7 5a3e 76f9 de3d
00000030: 6f1c 5e3e d576 1d3e 69f6 4c3e 2de2 a43c

conv1.linear_r.W f4 [3, 74, 16]
0.07169787 -0.34438103 -0.03625319 -0.050186597 -0.06348449 0.30403486 -0.15100755 -0.068514906
0.3357268 -0.15751427 -0.10735222 0.045264233 0.0469934 -0.25113404 -0.11684933 0.039602112
0.24875939 0.48084468 0.18553944 1.0734208 0.95591515 -0.33678168 -0.031799953 -0.09829725
-0.27289006 0.023897989 0.46144626 -0.24675208 0.042976163 -0.30240506 0.13143134 -0.8226286
0.1652617 0.15020658 0.27693123 -0.27792278 -0.37335756 -0.42491853 -0.3469702 -0.016259423
-0.07529895 -0.2053769 0.21523249 0.042555016 -0.025987567 0.010889357 -0.2593336 -0.11274517
-0.6222593 -0.41813543 -0.9292695 0.13551928 0.23614426 0.14621349 0.1801404 -1.2588489
0.2985998 -1.0496781 -0.85877055 -1.3266665 -1.3270432 -1.0903805 -0.39746785 0.34366083
-0.2965406 -0.08647858 -0.15217514 0.8151578 0.6724709 0.04009315 -0.03576232 0.09061824
-0.017599154 0.30760527 -0.15385994 0.17220181 -0.083159 0.015049926 -0.089741126 -0.026144613
0.07247538 0.082567856 -0.023420203 -0.119386464 -0.11069452 -0.46224618 -0.17984764 -0.08034394
-0.2711195 -0.027251875 -0.003910422 -0.1920842 -0.017073661 -0.08628376 -0.04939455 -0.10610991
0.156591 0.021494329 0.5250702 -0.16891585 0.09750782 -0.14890462 -0.10940613 -0.25327128
-0.036148 0.17289248 0.6474967 0.25865316 -0.084337674 0.31692237 0.5379476 0.2454618
-0.228394 -0.07159016 -0.08990423 -0.92179435 -0.83147794 -0.018388163 -0.19023335 -0.0030041898
0.0705942 0.13509026 -0.095414646 -0.13731936 -0.16682953 0.26606047 -0.0007665796 0.019068722
-0.13617554 0.071408294 0.1255541 -0.26090094 0.14362252 0.24967264 0.0063345437 0.28071415
0.44854844 0.39806223 -0.29794875 0.10406329 -0.2558654 0.18187577 -0.25419796 -0.10196819
-0.038808666 0.042719744 -0.13450775 -0.06574278 0.058319706 -0.12808892 -0.108754605 -0.024822881
-0.056706462 -0.123666584 -0.07005112 -0.20269957 -0.07962311 -0.24809031 -0.057946853 -0.5664113
0.10942822 0.018661112 -0.9214422 0.1904255 0.03406996 -0.06562331 0.2495515 -0.65556
0.644834 -0.5787834 -0.045182306 -0.5650788 -0.48337182 -0.2040249 0.20412794 -0.72820556
-1.2393367 -1.1427557 -0.3174191 -0.830704 -1.320281 -0.81080264 -1.1547922 -1.0695293
-0.3776559 -0.35398632 -0.2723742 -0.8811839 -0.35369027 -0.87670076 -0.29976982 -0.23187393
0.00037250196 0.070713066 0.06509082 -0.17434219 0.6269591 -0.44409814 0.8202552 -0.18088531
-0.26250243 -0.3667328 0.04401628 -0.22786407 -0.011952397 -0.014889348 -0.0967374 0.21289723
0.45332113 1.0408583 0.3660919 0.054912 -0.11354905 -0.23380865 0.01651365 -0.410641
-0.26923645 -0.15143374 0.3356748 0.07131605 -0.13663265 -0.105735205 0.46492383 -1.0080858
0.0068840478 0.60766214 0.49705282 0.08971332 0.25524515 0.28504288 0.12381416 0.28108117
0.010331556 -0.86086345 0.58069336 -1.1130251 -0.45121038 -0.91882575 0.7746594 -1.3245964
-0.23972546 -0.057782803 -0.13436791 -1.1414485 -0.3601752 0.36052996 0.20704608 -0.03564143
0.43460315 -0.16614085 -0.06604051 0.21986705 0.16360012 -0.14808919 -0.23340914 -0.0063191415
00000000: 55d6 923d b652 b0be 3a7e 14bd 7690 4dbd
00000010: 2804 82bd 75aa 9b3e b9a1 1abe 8b51 8cbd
00000020: 62e4 ab3e 6c4b 21be 7bdb dbbd fd66 393d
00000030: 277c 403d a494 80be b44e efbd d335 223d
00000040: c8ba 7e3e 4631 f63e 0dfe 3d3e da65 893f
00000050: dbb6 743f a66e acbe ab40 02bd 1250 c9bd
00000060: 3fb8 8bbe b7c5 c33c af42 ec3e 94ac 7cbe
00000070: c607 303d d6d4 9abe f095 063e ca97 52bf
00000080: 5d3a 293e c1cf 193e eec9 8d3e e54b 8ebe
00000090: b928 bfbe ec8e d9be 14a6 b1be 7b32 85bc
000000a0: 5636 9abd 524e 52be e865 5c3e 2b4e 2e3d
000000b0: e1e3 d4bc 4669 323c 60c7 84be f1e6 e6bd
000000c0: 634c 1fbf d915 d6be 9be4 6dbf 91c5 0a3e
000000d0: cdcf 713e fdb8 153e ba76 383e f621 a1bf
000000e0: 13e2 983e da5b 86bf 63d8 5bbf 35d0 a9bf
000000f0: 8ddc a9bf 9791 8bbf e880 cbbe 50f4 af3e
00000100: 2bd4 97be af1b b1bd cdd3 1bbe 2eae 503f
00000110: 0e27 2c3f b738 243d 837b 12bd 0e96 b93d
00000120: 1a2c 90bc 707e 9d3e 768d 1dbe ac55 303e
00000130: 444f aabd f793 763c 32ca b7bd 3a2d d6bc
00000140: f96d 943d 5619 a93d badb bfbc e480 f4bd
00000150: cfb3 e2bd 88ab ecbe fb29 38be 5d8b a4bd
00000160: 2dd0 8abe 533f dfbc ff22 80bb b8b1 44be
00000170: 10de 8bbc 8ab5 b0bd f151 4abd 2750 d9bd
00000180: 6459 203e e014 b03c 006b 063f 47f8 2cbe
00000190: 2eb2 c73d 747a 18be 5210 e0bd c6ac 81be
000001a0: ed0f 14bd ba0a 313e 58c2 253f 306e 843e
000001b0: 3bb9 acbd a643 a23e efb6 093f 575a 7b3e
000001c0: 1ee0 69be dd9d 92bd b51f b8bd b7fa 6bbf
000001d0: bddb 54bf c6a2 96bc 88cc 42be f1e1 44bb
000001e0: b193 903d 1a55 0a3e c168 c3bd 729d 0cbe
000001f0: 5cd5 2abe 1439 883e 49f4 48ba 0236 9c3c
00000200: 9a71 0bbe 833e 923d 4191 003e cf94 85be
00000210: c811 133e 2faa 7f3e 0192 cf3b c4b9 8f3e
00000220: 24a8 e53e d0ce cb3e bd8c 98be 221f d53d
00000230: ca00 83be a43d 3a3e 3c26 82be b3d4 d0bd
00000240: d6f5 1ebd e6fa 2e3d 66bc 09be 27a4 86bd
00000250: a5e0 6e3d be29 03be bcba debd 5b59 cbbc
00000260: 0945 68bd e844 fdbd f676 8fbd 7a90 4fbe
00000270: 7111 a3bd 630b 7ebe ae59 6dbd 5500 11bf
00000280: e71b e03d 30df 983c a3e3 6bbf e7fe 423e
00000290: f18c 0b3d 8465 86bd 6e8a 7f3e c8d2 27bf
000002a0: d713 253f 262b 14bf 1511 39bd 01a9 10bf
000002b0: 837c f7be e7eb 50be ea06 513e ae6b 3abf
000002c0: 96a2 9ebf d245 92bf c284 a2be 04a9 54bf
000002d0: f8fe a8bf c390 4fbf 3bd0 93bf 56e6 88bf
000002e0: 1d5c c1be b23d b5be a274 8bbe 4595 61bf
000002f0: e416 b5be 766f 60bf 6e7b 99be 5c70 6dbe
00000300: 5e4c c339 03d2 903d 564e 853d c286 32be
00000310: 6480 203f d560 e3be 3ffc 513f 003a 39be
00000320: b866 86be 67c4 bbbe 6a4a 343d 3355 69be
00000330: fdd3 43bc 74f2 73bc 421e c6bd bb01 5a3e
00000340: b519 e83e d83a 853f 6670 bb3e 68eb 603d
00000350: 688c e8bd 896b 6fbe a247 873c 8a3f d2be
00000360: 5cd9 89be 7211 1bbe 91dd ab3e 260e 923d
00000370: 6ee9 0bbe b38b d8bd 7f0a ee3e f508 81bf
00000380: 9493 e13b bf8f 1b3f b57d fe3e 9ebb b73d
00000390: 7eaf 823e 24f1 913e 4792 fd3d dfe9 8f3e
000003a0: b045 293c 8c61 5cbf 52a8 143f 9b77 8ebf
000003b0: 0c05 e7be 2a38 6bbf 1450 463f 608c a9bf
000003c0: 977a 75be a9ad 6cbd be97 09be fc1a 92bf
000003d0: e268 b8be 6297 b83e e303 543e c0fc 11bd
000003e0: 4e84 de3e d420 2abe 3f40 87bd d424 613e
000003f0: ca86 273e b1a4 17be ce02 6fbe cd10 cfbb

conv1.linear_r.coeff f4 [3, 3]
-2.2569106 -2.5514355 1.834015 -1.4031997 -1.638562 1.6919343 -1.9177191 0.70724326
-1.1860399
00000000: 3971 10c0 b84a 23c0 01c1 ea3f 0c9c b3bf
00000010: 66bc d1bf 4e91 d83f d277 f5bf e50d 353f
00000020: 28d0 97bf

conv2.h_bias f4 [4]
0.15634926 0.036664475 0.49306038 0.23616233
00000000: 051a 203e 7d2d 163d 6972 fc3e 8ad4 713e

conv2.linear_r.W f4 [3, 16, 4]
0.046709623 0.17706554 0.6155366 -0.11184352 0.12177104 0.18499702 0.6361393 0.34865054
-0.25551242 0.31338575 0.4514758 -0.044117298 0.7130698 -0.43377143 -0.1527544 0.6298637
0.93390024 -0.8110193 0.8501053 0.91632855 0.5976734 -0.17336732 0.11890187 0.540067
0.3805425 -0.11120262 0.23507126 0.65125227 -0.44581112 0.6053047 -0.07910064 -0.19894084
0.584812 -0.31292167 0.008739277 0.62494534 -0.33734864 0.41824085 0.21014561 -0.1754945
-0.23396894 0.31377047 0.36748227 -0.05829687 -0.5417443 0.7101636 -0.42067903 -0.5217625
-0.36246613 0.47948146 0.15575105 -0.22946061 -0.32614592 0.36427036 -0.30437565 -0.13449857
0.1431204 0.20965053 0.010131135 0.20937969 -0.45306873 0.18109281 -0.9951922 -0.33580828
0.09429547 0.11586271 0.8515425 -0.19167918 -0.097379446 0.22403936 0.68273 -0.0076463274
-0.33987665 0.28936425 0.48321244 -0.121820524 0.3217886 -0.6065144 -0.5920993 0.5827311
0.8240534 -0.38512737 0.20372708 0.42944664 0.67134 -0.5172289 -0.16260254 0.3636375
0.5543329 -0.13753188 0.19683526 0.601155 -0.435316 0.6596132 -0.19558726 -0.2210703
0.5334443 -0.6215699 -0.28633142 0.5080258 -0.40640384 0.63935703 -0.10225706 -0.5782584
-0.035011448 0.24351071 0.31258875 -0.08152191 -0.35202664 0.7442181 -0.28374162 -0.41664025
-0.10115585 0.34729907 0.1159819 -0.250344 -0.24254464 0.4347621 -0.09787079 -0.2617099
-0.3851094 0.5015971 0.32981515 0.05860417 -0.043788638 0.012138125 -0.99272245 -0.05158024
0.33475557 -0.2624697 -0.8918723 -0.004899855 0.2568051 -0.46183833 -0.75602454 0.43124893
0.5038506 -0.46068415 -0.08314689 0.35533258 -0.03955978 0.46666968 0.19782473 -0.40161347
-0.7301843 0.3918368 -0.0972369 -0.5791019 -0.7943787 0.55121565 0.63923615 -0.65972215
-0.4491277 0.028003318 0.072196886 -0.38372612 0.52286273 -0.56707525 -0.2602388 0.20565782
-0.627444 0.49224824 0.6832173 -0.52190393 0.7983297 -0.4055251 0.31165013 0.75943565
0.36737353 -0.61798185 -0.70661587 0.45389295 0.4418206 -0.6046385 0.048726074 0.4486892
0.28069082 -0.69080126 -0.10946546 0.052204207 0.46753404 -0.48921874 -0.10668061 0.17698301
0.41906083 -0.27682626 -0.41539046 0.37661293 -0.032752387 -0.023987992 1.0939711 0.18016072
00000000: 9752 3f3d ab50 353e ce93 1d3f 370e e5bd
00000010: 1863 f93d dc6f 3d3e 06da 223f 5382 b23e
00000020: 86d2 82be 1974 a03e d627 e73e 57b4 34bd
00000030: be8b 363f 4a17 debe a66b 1cbe bf3e 213f
00000040: 1614 6f3f f69e 4fbf 80a0 593f 8294 6a3f
00000050: 2001 193f 3487 31be d382 f33d d541 0a3f
00000060: 77d6 c23e 33be e3bd 85b6 703e 78b8 263f
00000070: 5b41 e4be 40f5 1a3f 84ff a1bd 26b7 4bbe
00000080: 3db6 153f 4537 a0be 2f2f 0f3c 6bfc 1f3f
00000090: f6b8 acbe aa23 d63e 6930 573e d5b4 33be
000000a0: 8e95 6fbe 86a6 a03e a326 bc3e b3c8 6ebd
000000b0: c1af 0abf 48cd 353f 3e63 d7be 3a92 05bf
000000c0: 2995 b9be 987e f53e 347d 1f3e b9f7 6abe
000000d0: 99fc a6be a581 ba3e 20d7 9bbe feb9 09be
000000e0: 278e 123e a1ae 563e 0ffd 253c a167 563e
000000f0: a0f8 e7be 6570 393e ebc4 7ebf 10ef abbe
00000100: fc1d c13d 6e49 ed3d b0fe 593f 8c47 44be
00000110: e06e c7bd 936a 653e 65c7 2e3f 0b8e fabb
00000120: 5004 aebe 8d27 943e 9f67 f73e 0a7d f9bd
00000130: 7ac1 a43e 8744 1bbf d293 17bf de2d 153f
00000140: 2af5 523f 6a2f c5be d59d 503e 6ee0 db3e
00000150: f0dc 2b3f 1d69 04bf 4881 26be b22e ba3e
00000160: c3e8 0d3f 28d5 0cbe 2f8f 493e 4be5 193f
00000170: bde1 debe 69dc 283f 0748 48be 4160 62be
00000180: ce8f 083f 341f 1fbf 089a 92be fb0d 023f
00000190: 2a14 d0be e7ac 233f 266c d1bd be08 14bf
000001a0: 2a68 0fbd df5a 793e a20b a03e f6f4 a6bd
000001b0: d63c b4be 1485 3e3f 9546 91be df51 d5be
000001c0: cc2a cfbd 2fd1 b13e eb87 ed3d 172d 80be
000001d0: 9f5d 78be 2399 de3e 7b70 c8bd d7fe 85be
000001e0: 0f2d c5be ab68 003f 88dd a83e ed0a 703d
000001f0: b75b 33bd fcde 463c 0f23 7ebf cd45 53bd
00000200: 1565 ab3e 6e62 86be be51 64bf f68e a0bb
00000210: f57b 833e 1376 ecbe d38a 41bf a9cc dc3e
00000220: 5afc 003f cbde ebbe eb48 aabd 27ee b53e
00000230: 7009 22bd 54ef ee3e 9192 4a3e 48a0 cdbe
00000240: 5ced 3abf d59e c83e 2424 c7bd 0640 14bf
00000250: 675c 4bbf 781c 0d3f fba4 233f 8de3 28bf
00000260: 11f4 e5be 3767 e53c f6db 933d c077 c4be
00000270: 55da 053f d82b 11bf 053e 85be f797 523e
00000280: 2ca0 20bf f607 fc3e 54e7 2e3f 7f9b 05bf
00000290: 565f 4c3f fca0 cfbe 9b90 9f3e 606a 423f
000002a0: 6218 bc3e 0f34 1ebf c7e4 34bf a864 e83e
000002b0: 4f36 e23e 97c9 1abf fe94 473d 97ba e53e
000002c0: b5b6 8f3e 5ad8 30bf 6d2f e0bd 14d4 553d
000002d0: 9f60 ef3e e17a fabe 5d7b dabd 093b 353e
000002e0: 248f d63e 2cbc 8dbe 0fae d4be 69d3 c03e
000002f0: 5e27 06bd 7782 c4bc 3f07 8c3f 0d7c 383e

conv2.linear_r.coeff f4 [3, 3]
2.2491086 2.1479747 -1.4159043 2.075861 -0.24850819 0.91481787 1.5535698 1.4425459
0.11317618
00000000: 65f1 0f40 6b78 0940 5a3c b5bf e8da 0440
00000010: ee78 7ebe 8131 6a3f 60db c63f 58a5 b83f
00000020: eac8 e73d

fc.weight f4 [4, 4]
-1.0220033 0.6809365 0.19063129 -1.4318991 0.49486643 0.1909791 0.6882239 0.72780627
0.12601721 -0.08910681 -2.0543401 0.11532627 0.74571997 -1.6516081 -0.87588376 -0.9340671
00000000: 01d1 82bf db51 2e3f d934 433e 7848 b7bf
00000010: 225f fd3e 0690 433e 712f 303f 8351 3a3f
00000020: a80a 013e a27d b6bd 4f7a 03c0 2e30 ec3d
00000030: 81e7 3e3f e567 d3bf eb39 60bf 051f 6fbf

fc.bias f4 [4]
0.0022504097 0.26873574 -0.07744522 -0.8703747
00000000: 9c7b 133b bb97 893e 999b 9ebd e0d0 5ebf
