RGCN/model/trained_model/best_model_rgcn_1555_9-10-1739774592.2842584.pt (torch, 18620 bytes, 8 tensors)

conv1.h_bias f4 [16]
0	0xbca1505b	-0.019691637
1	0x3db11015	0.086456455
2	0x3dc793d3	0.09744992
3	0xbd00656e	-0.03134673
4	0x3db72d8b	0.089442335
5	0x3dcb0ce5	0.09914569
6	0xbd22642e	-0.03964632
7	0x3da124cd	0.07868347
8	0x3da3d9e2	0.08000542
9	0x3d9ff34a	0.078100756
10	0x3d62d3f5	0.05537792
11	0x3ca26b82	0.019826654
12	0x3dc95b88	0.09831911
13	0xbd21ce2f	-0.039503273
14	0x3acf99c0	0.0015838668
15	0xbcb15ea2	-0.02165157

conv1.linear_r.W f4 [3, 74, 16]
0	0x3d010124	0.03149523
1	0xbdcd8636	-0.10035364
2	0xbe0f7698	-0.14010084
3	0x3db4e2c5	0.08832315
4	0x3c2a6c65	0.01040182
5	0xbd8e60c7	-0.069520526
6	0x3d4d9117	0.050187197
7	0x3deb311d	0.11483977
8	0xbe391f03	-0.18078236
9	0xbe0c3a14	-0.1369403
10	0x3d2f3b5b	0.042781215
11	0xbd95888f	-0.07301437
12	0x3d0db33a	0.034594752
13	0xbd27495b	-0.04084144
14	0x3d22d9ee	0.039758615
15	0x3d4f3242	0.05058504
16	0xbd80d253	-0.06290116
17	0xbd930412	-0.07178511
18	0xbd9498c6	-0.07255702
19	0x3d47cdd1	0.048780266
20	0xbdf776d0	-0.120832086
21	0xba317f5a	-0.0006770991
22	0x3d89803d	0.06713913
23	0xbe55257d	-0.20815082
24	0xbd114b2b	-0.035472076
25	0xbe3f44bf	-0.18678568
26	0xbdb51edf	-0.08843779
27	0x3da102b0	0.07861841
28	0xbdbfb279	-0.09360213
29	0xbb39f962	-0.0028377404
30	0xbda28102	-0.079347625
31	0x3a90d4e5	0.0011049776
32	0x3dd8cf0d	0.10586367
33	0x3e174550	0.14772534
34	0x3e15f70e	0.14645025
35	0xbc6d75e3	-0.014493438
36	0x3d5b20cd	0.05349808
37	0xbd65344c	-0.055958077
38	0x3ca66454	0.020311512
39	0x3c41b086	0.011821872
40	0xbdbe78aa	-0.093003586
41	0x3df49de7	0.1194418
42	0xbdc13198	-0.094332874
43	0x3d9ce578	0.07660955
44	0x3d556f64	0.052108184
45	0x3e298b6c	0.16557091
46	0xbdd0b62a	-0.10190995
47	0xbda9105d	-0.08255074
48	0x3cb5ec58	0.022207424
49	0xbdbca3d5	-0.09210936
50	0x3d991e27	0.07476454
51	0xbd6f4593	-0.05841596
52	0xbd58e504	-0.05295278
53	0x3a7ce085	0.0009646493
54	0x3d70df68	0.058806807
55	0x3c3f54a9	0.011677899
56	0x3e3200c9	0.17383112
57	0x3e237198	0.15961301
58	0x3d1091d4	0.035295323
59	0x3d077308	0.033068687
60	0x3c13ca58	0.0090204105
61	0xbca81d29	-0.020521717
62	0x3e10d749	0.14144625
63	0x3d6a8ebd	0.057265032
64	0xbd6519a9	-0.055932675
65	0x3e01e61c	0.12685436
66	0x3e0d59f4	0.13803846
67	0xbde802fc	-0.11328694
68	0x3d6a0723	0.057135712
69	0x3dcdad9b	0.10042878
70	0xbda43a51	-0.080189355
71	0x3c0c6af1	0.008570419
72	0x3c8d3f8b	0.017242214
73	0x3d0ae1a0	0.03390658
74	0x3df8b40a	0.12143715
75	0x3e2a541e	0.1663365
76	0x3d1955ba	0.03743527
77	0x3db8eddb	0.09029742
78	0x3dd201cc	0.10254249
79	0x3d7f88da	0.06238637
80	0xbdb7d504	-0.089761764
81	0xba1efffd	-0.0006065367
82	0x3df20603	0.11817553
83	0x3d863c00	0.06554413
84	0x3daeeddd	0.085414626
85	0x3e179661	0.14803459
86	0x3cee9146	0.029122006
87	0x3de0f048	0.1098333
88	0x3d70ece0	0.05881965
89	0xbb268a69	-0.0025412089
90	0xbd98ba15	-0.07457367
91	0x3dca9524	0.098917276
92	0x3e04584a	0.12924305
93	0x3d8f420f	0.069950216
94	0x3cae375d	0.021266634
95	0xbdac90ec	-0.08426079
96	0x3d9e94bf	0.07743215
97	0x3e0960c9	0.13415827
98	0x3e0863ce	0.13319322
99	0x3d716d4d	0.058942128
100	0x3d58974d	0.052878667
101	0x3e37fdc7	0.17967902
102	0xbdba0195	-0.09082333
103	0x3ba0938b	0.004900401
104	0x3d2b40fb	0.041810017
105	0x3e0fa30b	0.1402704
106	0x3d1e3c54	0.038631752
107	0x3c9d1150	0.019173294
108	0x3e208fbb	0.15679829
109	0x3d0a7ec4	0.0338123
110	0xbd31623d	-0.043306578
111	0x3d306a43	0.04307009
112	0x3ad59241	0.0016294197
113	0x3d3f4678	0.046698064
114	0x3d21e881	0.039528374
115	0xbdd29de5	-0.10284022
116	0x3e1bd57e	0.1521816
117	0xbdf8e3d1	-0.121528275
118	0x3dad0119	0.08447475
119	0xbd7183c4	-0.058963552
120	0xbd22be59	-0.03973231
121	0x3e39d5bc	0.1814794
122	0x3cda2fb5	0.026634077
123	0x3e0778ee	0.13229725
124	0x3d2bf8c8	0.041985303
125	0x3d3d8349	0.04626778
126	0x3d6c1a3c	0.057642207
127	0x3da9db6f	0.08293807
128	0x3d097e97	0.03356799
129	0x3aec6444	0.0018035253
130	0x3c031632	0.008000897
131	0xbd80e469	-0.06293566
132	0x3e34501b	0.17608683
133	0x3e3a8886	0.18216142
134	0xbd5b2021	-0.053497437
135	0x3d6895b5	0.056783397
136	0xbd1ba1fa	-0.03799627
137	0x3dca666b	0.09882816
138	0x3b0d84a3	0.002159395
139	0xbd810665	-0.06300048
140	0x3d61e7d6	0.055152737
141	0xbdd3bdce	-0.10338937
142	0xbbbf7137	-0.0058423537
143	0xbda05795	-0.07829205
144	0xbd3104e7	-0.043217566
145	0x3dcd0741	0.10011149
146	0x3e0a8104	0.13525778
147	0x3a135bb9	0.0005621273
148	0xbdbb1871	-0.09135521
149	0xbe2f41d9	-0.17114963
150	0xbce4b60c	-0.027918838
151	0xbe49e31c	-0.19715542
152	0xbc18ae8a	-0.009318957
153	0x3cf76c81	0.030203106
154	0xbe0b0887	-0.13577472
155	0x3df488a5	0.119401254
156	0xba8b6cef	-0.0010637323
157	0x3e12b6f0	0.14327598
158	0x3bbeb195	0.0058195093
159	0x3d5e9d1b	0.054349046
160	0x3b7cb2f2	0.0038558808
161	0x3e413bce	0.1887047
162	0x3e50dbdb	0.20396368
163	0x3a5f8950	0.0008527236
164	0x3de20dfa	0.11037822
165	0x3d1cfa69	0.038324747
166	0x3d94b39c	0.0726082
167	0x3dc3a555	0.09553019
168	0xbd861f9d	-0.065489985
169	0xbe0b71e5	-0.13617666
170	0x3da181db	0.07886096
171	0xbd0d6efc	-0.03452967
172	0xbc7f62ad	-0.015587491
173	0x3db71cea	0.08941062
174	0xbd13ed97	-0.036115255
175	0xbd161ec1	-0.036650423
176	0x3d796828	0.060890347
177	0x3e134e6a	0.14385381
178	0xbdc2bec5	-0.09509043
179	0x3dc41a8c	0.09575376
180	0xbd82a4f6	-0.0637912
181	0x3d161512	0.036641188
182	0xbc5d8bf8	-0.013522141
183	0xbde7b526	-0.11313848
184	0x3c838236	0.0160533
185	0x3b8b4429	0.0042500687
186	0xbc9d7c16	-0.019224208
187	0xbdc523cf	-0.096259706
188	0x3dc97d79	0.09838385
189	0xbdd2c424	-0.10291317
190	0x3b943a68	0.004523564
191	0x3dd773f3	0.105201624
192	0xbd26c6bc	-0.04071687
193	0x3d901420	0.070350885
194	0x3dcebb86	0.10094361
195	0x3daa695a	0.083208755
196	0x3e2a638c	0.16639537
197	0x3c4a8fa8	0.012363352
198	0xbd5b375b	-0.053519588
199	0x3e07f0b1	0.1327541
200	0xbdb23ee1	-0.087033994
201	0x3e041f84	0.12902647
202	0xbbda7f5c	-0.0066680145
203	0x3dae1ac4	0.08501199
204	0x3da0d662	0.0785339
205	0x3d2afa20	0.041742444
206	0x3cb5db04	0.022199161
207	0x3d960d4c	0.07326755
208	0xbc8bd6fa	-0.017070282
209	0x3e1e2b76	0.15446267
210	0x3e544d54	0.20732623
211	0x3dca18e0	0.09868026
212	0x3e14fd02	0.1454964
213	0x3d0cb613	0.034353327
214	0xbd5d605e	-0.05404698
215	0x3dccc23d	0.099979855
216	0xbd9f8854	-0.077896744
217	0x3d7c4821	0.061592225
218	0x3e15d239	0.14630975
219	0x3c9edd03	0.019392496
220	0x3d8735be	0.066020474
221	0xbdafb956	-0.08580272
222	0x3d7468d3	0.05967028
223	0x3d25132f	0.040301498
224	0x3d569fe7	0.05239859
225	0x3e426ab1	0.18986012
226	0xbc76667e	-0.0150390845
227	0x3ce2f482	0.027704481
228	0x3dff6da3	0.124720834
229	0x3cde809e	0.027160939
230	0x3daf6ff5	0.08566276
231	0x3e29d899	0.16586532
232	0x3e3c0e48	0.18364823
233	0x3d7a33ba	0.061084487
234	0xbd862cf6	-0.06551544
235	0xbb0becca	-0.0021350854
236	0x3d4f7bea	0.050655283
237	0x3bbe74f4	0.0058122817
238	0x3d498aa8	0.0492045
239	0xbd815ab1	-0.06316126
240	0x3d875840	0.06608629
241	0x3c508f29	0.012729445
242	0x3de880bb	0.113526784
243	0x3d9ff759	0.0781085
244	0x3ddece12	0.108791485
245	0x3e39b915	0.1813701
246	0x3d96020c	0.07324609
247	0xbd1fff51	-0.039061848
248	0xbbadc0a5	-0.005302506
249	0x3dc42347	0.09577041
250	0x3dc2f20d	0.09518824
251	0x3daf6a75	0.08565227
252	0x3bd1d285	0.0064032697
253	0xbca0f148	-0.019646302
254	0xbdf27581	-0.11838818
255	0x3d69ac11	0.05704886

conv1.linear_r.coeff f4 [3, 3]
0	0x3f3a5051	0.72778803
1	0x3ef529ec	0.47883546
2	0xbf840b3d	-1.031593
3	0xbe1a56a9	-0.1507212
4	0x3fc0f030	1.50733
5	0x3f6d3c97	0.9267058
6	0x3ed2694e	0.41095966
7	0x3f8b910e	1.0903642
8	0xbf552dcd	-0.8327301

conv2.h_bias f4 [2]
0	0xbd8fee2c	-0.070278496
1	0x3d80dded	0.06292329

conv2.linear_r.W f4 [3, 16, 2]
0	0xbe10e2ba	-0.1414899
1	0xbd84849a	-0.06470604
2	0x3cfa70ba	0.03057133
3	0xbc300198	-0.0107425675
4	0x3dab1dee	0.08355318
5	0x3e850471	0.2597995
6	0xbd2336ff	-0.03984737
7	0xbd9ddd6d	-0.07708249
8	0x3d1545ac	0.036443397
9	0x3df53629	0.11973221
10	0x3dc9a571	0.098460086
11	0x3e935e05	0.2878267
12	0xbd8da001	-0.06915284
13	0xbe431be2	-0.19053605
14	0xbc21e628	-0.009881534
15	0x3df76f44	0.12081769
16	0xbdfd5414	-0.12369552
17	0x3e2ad34a	0.16682163
18	0xbe319330	-0.17341304
19	0x3ea88c38	0.32919478
20	0xbcfb402a	-0.030670244
21	0x3e52710f	0.20550941
22	0x3d768683	0.060186874
23	0xbe225901	-0.15854265
24	0xbdede4f5	-0.11615936
25	0xbe0b953d	-0.13631149
26	0x3e042028	0.12902892
27	0x3d8af833	0.067856215
28	0xbe9260f9	-0.2858961
29	0xbe0e702b	-0.13909976
30	0x3cda68cd	0.026661301
31	0xbe0e22db	-0.13880484
32	0x3e6e8c67	0.23295747
33	0x3e23445c	0.15944046
34	0x3e569512	0.20955303
35	0xbe644525	-0.22292002
36	0x3e709b8b	0.23496835
37	0x3ca6ada7	0.020346476
38	0x3c9ff1dc	0.019524507
39	0x3d03ba2a	0.03215996
40	0x3e9970b2	0.29968792
41	0x3c358da4	0.011081133
42	0xbbf97163	-0.0076123937
43	0xbc95934d	-0.018258715
44	0xbe471fa3	-0.19445662
45	0xbd50e4c6	-0.050999425
46	0xbdc91ee5	-0.09820346
47	0xbea77b60	-0.32711315
48	0x3db2c7df	0.08729529
49	0xbdecf300	-0.11569786
50	0x3eadc88a	0.33942062
51	0xbe3a07bf	-0.18167017
52	0x3e7c7df7	0.24657427
53	0x3de9c3f6	0.1141433
54	0x3e50b74f	0.20382427
55	0xbe24cc61	-0.1609359
56	0x3d51a0e8	0.051178843
57	0xbe8f077d	-0.279354
58	0xbdeb7595	-0.11497036
59	0xbdceeed4	-0.101041466
60	0xbd97827d	-0.073979355
61	0xbcfb5754	-0.03068129
62	0x3e06c887	0.13162433
63	0x3e497ae4	0.19675785
64	0x3da6250f	0.08112537
65	0xbd328b97	-0.043590154
66	0xbd448fc1	-0.047988657
67	0xbdcaa9f6	-0.09895699
68	0x3dd7a79c	0.10530016
69	0x3c9c4b8a	0.019078989
70	0x3e859480	0.2608986
71	0x3c955252	0.01822773
72	0x3e801a30	0.2501998
73	0xbde3ed1e	-0.11129211
74	0x3df70cbf	0.12062978
75	0xbdf2a74e	-0.11848317
76	0x3d7a33fa	0.061084725
77	0x3e3c6b30	0.18400264
78	0xbe022c62	-0.12712243
79	0xbea1d577	-0.31608173
80	0x3e153dd9	0.14574374
81	0xbe9aa485	-0.30203643
82	0x3e9e3360	0.3089857
83	0x3cf33951	0.029690417
84	0xbcef7ab5	-0.029233316
85	0xbe087e33	-0.13329391
86	0x3e2d842f	0.16944955
87	0x3e8efd60	0.27927685
88	0x3ceb223b	0.028702846
89	0x3e259af9	0.16172399
90	0x3c8c4ecb	0.017127415
91	0x3e8d4267	0.27589723
92	0x3e3dac28	0.18522704
93	0xbe8d5f02	-0.27611548
94	0xbe389b2d	-0.18027945
95	0xbe39cbe9	-0.18144192

conv2.linear_r.coeff f4 [3, 3]
0	0x3f8204cc	1.0157714
1	0xbfa088bc	-1.2541728
2	0xbe7ea742	-0.24868491
3	0x3f740250	0.9531603
4	0xbf86368e	-1.0485399
5	0xbf7582d3	-0.95902747
6	0xbedd232d	-0.431909
7	0xbdf36dc8	-0.118861735
8	0x3fac8649	1.347848

fc.weight f4 [2, 2]
0	0xbf4b7037	-0.794681
1	0xbe026fb3	-0.12737922
2	0xbefbf281	-0.49208453
3	0xbf126858	-0.57190466

fc.bias f4 [2]
0	0xbf17e73a	-0.593372
1	0x3e93a01c	0.2883309
