RGCN/model/trained_model/best_model_rgcn_1555_9-10-1739774369.3894756.pt (torch, 18620 bytes, 8 tensors)

conv1.h_bias f4 [16]
00000000: 4896 b63d 64de 29bd 2ef9 963d 79f0 21bd
00000010: c22e da3c 28e9 18bd 98a4 d9bc c577 8c3d
00000020: 81d1 b7bc a72f a63d c681 dcbc d796 a73d
00000030: a5f0 903c 3426 9e3d d0cd e23c e222 9d3d
0.089153826 -0.041471854 0.07371746 -0.039535973 0.026633624 -0.03733173 -0.026567742 0.06858782
-0.022438766 0.08114558 -0.02691735 0.08183067 0.017692873 0.077221304 0.02768603 0.07672669

conv1.linear_r.W f4 [3, 74, 16]
00000000: 0060 44be f25e 4fbd 0091 06be 281d 5e3d
00000010: 3016 443d 3a7e dd3d 16bf 8b3c 9921 28be
00000020: 069e 933d 2273 0dba ec2b 50bd 8c5f cf3c
00000030: 0be1 6c3d 7e82 14be b223 dc3d 34ce a7bd
00000040: cb34 93bb 07f9 353d 0e9d 90bd 3bc1 8ebd
00000050: 16d1 113d fef8 57bd caf4 8b3c 5a03 cbbd
00000060: 12e4 323b 11e1 00be a37d dcbc 7210 12bd
00000070: 3a18 3e3b 52cb 29be e3b1 eabc 9c12 25be
00000080: 480e 2cbe 4f60 5f3c 0ea5 4dbd c470 863d
00000090: 5461 c9bd 1943 a13c 2cdb 92bd 7032 8abc
000000a0: 2090 0a3c f561 d0bd 333b c8bb 3b9b b5bd
000000b0: a406 7bbc bd22 d1bd c9c6 d83b daba fcbd
000000c0: 40b0 aebd 86da ed3d d7c0 fabc 5053 00bd
000000d0: eeb6 1b3d 43d8 d8bb 5422 c5bc d9ab 55bc
000000e0: 5af5 8f3d cfec a53b f464 6d3d ce77 33bc
000000f0: d256 77bd 5af5 033d 8fb3 7abd 2394 babd
00000100: 195d 2e3c c40e 043d 544b 08bd 3b73 223a
00000110: aefd 7d3c 470a 6a3d 57d9 fdbc ce1f 27be
00000120: d363 6f3d a558 283d eb74 4cbd e7ca 22be
00000130: c0cf 6a3d 5385 8c3c ad24 80bd e967 c5bd
00000140: af02 5dbd 08be 9a3d 4ebc f53c 76e1 7d3d
00000150: ab89 cfbd 5701 4f3c a5a5 3bbc ef7b 133d
00000160: 66f5 b5bd 077a 003d ef64 8b3d 24b6 2e3e
00000170: d812 bb3d fd35 65bd 536e c33c 7cb3 153e
00000180: d590 2b3d ef85 533d 7d12 963d 997d 9bbd
00000190: f3cb 9bbd df44 6dbd ca26 94bc da22 f8bd
000001a0: ba90 64bc ac86 273e dcea e23c 09f7 86bd
000001b0: e5df a53d 7007 43be 4d62 093e c55f af3d
000001c0: c2e0 143d 2092 b0bc d7f4 253e 0f73 c6bd
000001d0: 91ff fd3d 9d3c 973d a024 0cbc bad3 a13d
000001e0: f640 82bd 7922 bf3d c516 013e f8a0 eb3d
000001f0: 5922 23bc f888 5b3d b927 0a3d 41dd ed3c
00000200: 393d bfbc 5c3c 413d f274 98bd 66e0 51bd
00000210: 67dd c93d 851b 353d f516 82bb 8664 c83b
00000220: 092d 163c 85e5 003e 1ca8 19bd f2e7 1c3e
00000230: 55de 573c f4c5 38be b3c2 95bd b93b 34be
00000240: 4c4b 45be d3e8 5e3d 0031 f03d aecf 98bc
00000250: 0fc4 5abc 7c1f 2c3d 4dd9 99bd 9512 423c
00000260: a68d a33d 3ca0 21bd 0147 533d 3644 2abe
00000270: 3890 61bd 38ac 1c3e 6981 733d 1a32 ebbd
00000280: 8088 513d e463 9bbd aba8 7b3c 0d33 7b3d
00000290: e3bd 87bd bb24 92bd 7318 ebbd b4bb 793d
000002a0: aa6a 16bd fab2 01be b0b2 c9bc e65b 193e
000002b0: dcbf ca3d bcd2 ca3b 0f7d 23be 3860 1e3e
000002c0: ca3b 27bd 9113 453d 7b78 6dbd 447d 4abd
000002d0: 54c8 be3d 47bd edbb 2fb4 3ebd ad96 143e
000002e0: 2139 85bd bbc2 083d abf8 993c 5f79 583c
000002f0: 90fe 03bd 285e aa3d 4b56 d6bd 8d02 04be
00000300: e536 0f3e b7f1 d43c 2bec 17be 87cd 183c
00000310: 03d1 10bd 0c94 433d fe70 ac3c 7f3d 26be
00000320: fddb bcbd fb91 49bd ec2d 0b3e 0fd5 b3bd
00000330: 18b5 853d 4ebf 593d e22a 6cbd 6faf 1dbb
00000340: 7fef 1a3e c964 063d 46cc 063e 11b6 09bd
00000350: dc90 f6bd ac9b 1a3d 2b70 1a3d e52f 203e
00000360: a131 b03c 5da5 313e 928d 7fbc dc6b 0d3e
00000370: d07c 12be a8d9 123e 1233 0c3d 9d27 fdbd
00000380: 5e6a d13d 941b 53bd 0e20 053d 018a 43bd
00000390: 306e 76bb 58fc 433d bd67 e8bb 8ebc d4bd
000003a0: 10b7 82bc b55e 333d 958a 8bbd b0d7 0cbd
000003b0: 4dbb 1c3d 37c4 26be ca2d 16bc 9fa1 173e
000003c0: 55ea 2d3e 4709 483d 4c3d cbbc 8945 8c3d
000003d0: 3bf1 2d3d 76fe 923d 8731 59bd 1ac2 abbd
000003e0: f745 a23d ba60 d13d 1650 22bd 3d90 34be
000003f0: 5a0a 563d 8409 e63d 1eee b3bd e205 b83d
-0.19177246 -0.050627656 -0.1314125 0.054227024 0.047872722 0.108150914 0.01705889 -0.16419066
0.07207875 -0.0005395879 -0.050823137 0.025314115 0.057831805 -0.14502904 0.10748996 -0.08193627
-0.0044923774 0.044426944 -0.07061206 -0.069704495 0.03559979 -0.05272769 0.017084498 -0.09912749
0.0027296585 -0.12585856 -0.026915377 -0.035660215 0.002900614 -0.16581467 -0.028649276 -0.1612038
-0.16802323 0.013633802 -0.050206237 0.06564477 -0.09833017 0.019685315 -0.0717071 -0.016869754
0.008457214 -0.10174934 -0.0061105727 -0.088674985 -0.0153214075 -0.10211704 0.006615494 -0.123403266
-0.08529711 0.11613946 -0.030609531 -0.031329453 0.038016252 -0.0066175773 -0.02406422 -0.01304146
0.07029219 0.00506363 0.057957605 -0.010953857 -0.060385533 0.032216407 -0.061206397 -0.09110286
0.010642313 0.032240644 -0.033274963 0.000619698 0.0155023765 0.057138707 -0.030987425 -0.16320726
0.05844481 0.041100163 -0.04991619 -0.15897714 0.057327032 0.017153418 -0.06256995 -0.0963896
-0.053957637 0.07555777 0.029997017 0.061982594 -0.1013368 0.012634597 -0.011453067 0.036006864
-0.08884697 0.031366374 0.06806361 0.17061669 0.091344535 -0.05595969 0.023856318 0.14619249
0.04188617 0.0516414 0.07327745 -0.07592315 -0.076072596 -0.05792701 -0.018084902 -0.121160224
-0.013950521 0.16359967 0.02769988 -0.06590087 0.08099345 -0.19045806 0.13416405 0.085631885
0.03634716 -0.021554053 0.1620668 -0.096899144 0.12402261 0.07384608 -0.008553654 0.07901712
-0.063600466 0.09332747 0.12606342 0.11505312 -0.00995692 0.05359742 0.03372929 0.029036166
-0.023344623 0.047176704 -0.074441805 -0.051239394 0.09856682 0.044215698 -0.003970022 0.006115499
0.009166011 0.12587555 -0.037513837 0.15322855 0.013175567 -0.18044263 -0.073125266 -0.17600907
-0.19267005 0.054421257 0.11728096 -0.018653717 -0.013352408 0.042022213 -0.0751215 0.011845251
0.07986002 -0.039459452 0.051581386 -0.16627583 -0.05506918 0.15300071 0.059449587 -0.114841655
0.051155567 -0.07587412 0.015360038 0.061327983 -0.06628015 -0.07135912 -0.11479273 0.060970023
-0.036722817 -0.1266593 -0.024621338 0.14976463 0.098998755 0.0061896723 -0.15965675 0.15466392
-0.040828504 0.048114363 -0.057976227 -0.04943587 0.09315553 -0.0072552296 -0.046558555 0.14510603
-0.06505037 0.033388834 0.018795332 0.013212531 -0.03222519 0.0831874 -0.10465678 -0.12891598
0.13985784 0.025994165 -0.14836185 0.009326345 -0.03535558 0.04774861 0.021049973 -0.16234396
-0.09221647 -0.049211483 0.13591737 -0.08780872 0.065286815 0.053160958 -0.057658084 -0.0024060865
0.15130423 0.03281096 0.13163862 -0.033620898 -0.120393485 0.037746117 0.037704628 0.1564327
0.02150804 0.17348237 -0.015597718 0.13810676 -0.14305425 0.14340842 0.034228392 -0.12361071
0.10225366 -0.051539972 0.032501273 -0.047739033 -0.0037602298 0.047848076 -0.0070924447 -0.103875265
-0.015956432 0.04379149 -0.06813542 -0.034385383 0.03826456 -0.16285788 -0.00916619 0.14807747
0.16983922 0.048836973 -0.024809502 0.068492 0.042466383 0.07177441 -0.05302575 -0.08386631
0.07923501 0.10223527 -0.039627157 -0.17633148 0.052255966 0.11232284 -0.087856516 0.08985497

conv1.linear_r.coeff f4 [3, 3]
00000000: 7075 3abf 541c a6bf 4e22 7bbf 88d5 92be
00000010: 0f30 803f 028a 0a3f 7b29 a23f 9f6d 293e
00000020: 1ef2 1d3f
-0.72835445 -1.2977395 -0.9809922 -0.28678536 1.0014666 0.54116833 1.2668909 0.16545723
0.61697567

conv2.h_bias f4 [2]
00000000: fb26 663d 1e8c 863d
0.05618952 0.06569694

conv2.linear_r.W f4 [3, 16, 2]
00000000: 6ed2 8b3e 3bf2 7a3e def3 14be d8b6 e6bd
00000010: e222 833e 9845 123d 5845 06bd 48d1 03be
00000020: 499d b33d 609b 943e 1a1c 30be 56d9 a9bd
00000030: f394 f9bd 3980 1ebe 9b59 523e ccbe a93e
00000040: 00b1 5dbe d729 07be 1162 8e3e ce8a 2b3c
00000050: 7920 cf3c 96b6 a5bd 28ee ab3e 1525 613e
00000060: 67cf 573d 1cd1 623e 38ae 863e 4d94 423d
00000070: 3924 d33d 9d8d 43bd d4a8 a03e e611 0dbe
00000080: 8bad 143e 5d6c ecbd 97c1 2dbe b53e 263e
00000090: 7de0 e0bd 20a2 f83d c6ed f3bc 2bfd 5abe
000000a0: bbd9 0f3e 0c4e 54be 3748 9ebb e2d0 f6bd
000000b0: 7bf3 57bd e164 00be 5f82 f2bd 1e2a 94bc
000000c0: ff11 273e 0ec7 d13d 4855 a1bd 3d85 7dbe
000000d0: 7f22 d03d 945a b53d 23f9 1c3e 6923 03be
000000e0: d126 b8bd 1a5b 233c 978a 363d bcbe 72be
000000f0: 544a 93be 6c9b 053e 7eb3 68be e914 56be
00000100: 4afd 3ebe dd36 90bd 1cf2 063e c884 ac3d
00000110: 360e d0bd b73b 09be ea00 4b3e 7568 29be
00000120: ebb5 25bd 1629 91be 1d80 323e 8b12 a6bc
00000130: abd2 7b3a 1bcc 943c aab0 a3be c2d3 a3be
00000140: d328 a93d de72 393d 12a7 a0bd 7cb9 6bbe
00000150: ec4e 78bd 9c34 05be 5088 69be 511c 82be
00000160: a2c5 0e3d 2ea6 8bbd ff68 52be 4a1a d63d
00000170: 320d d03d e350 f73d 1eba a53d 87f2 96bd
0.27308983 0.24506466 -0.14546153 -0.112653434 0.2561255 0.0357109 -0.032780975 -0.12872803
0.08770234 0.29024792 -0.1719822 -0.08293407 -0.12186613 -0.154786 0.20541994 0.3315338
-0.21649551 -0.13199554 0.27809194 0.010470105 0.025284039 -0.08091466 0.33580136 0.21986802
0.05268803 0.22150081 0.26304793 0.047504712 0.10309643 -0.047742475 0.31378806 -0.13776359
0.14519326 -0.11544106 -0.1696838 0.16234858 -0.10980318 0.12140298 -0.029776465 -0.21385638
0.14047901 -0.20732898 -0.004830386 -0.1205156 -0.052722435 -0.12538482 -0.118412726 -0.01808649
0.16315459 0.10243045 -0.07877594 -0.24757858 0.101628296 0.08855167 0.15329413 -0.12806477
-0.08991779 0.009970451 0.044565763 -0.23705572 -0.28767645 0.1304757 -0.22724721 -0.20906414
-0.1865131 -0.07041714 0.13178295 0.084237635 -0.101589605 -0.13401686 0.19824567 -0.16543753
-0.040456694 -0.2835166 0.17431684 -0.020272514 0.0009606282 0.018163731 -0.3197072 -0.31997496
0.0825974 0.04527556 -0.07844366 -0.23019975 -0.06062214 -0.1300835 -0.22805905 -0.2541223
0.034856446 -0.06818806 -0.20547865 0.10454233 0.10158767 0.12075975 0.0809214 -0.07370477

conv2.linear_r.coeff f4 [3, 3]
00000000: 977c 91bc 9e23 5bbe 1da3 1cbf a728 9b3f
00000010: dd5e 4fbf 2e94 c1bd 15b0 8c3f 54f5 7dbf
00000020: f94c 57bf
-0.017759604 -0.21400306 -0.6118639 1.2121781 -0.81004125 -0.09452091 1.0991236 -0.99202466
-0.84101826

fc.weight f4 [2, 2]
00000000: d401 d83e 5de4 7d3e c1cf dcbe 03cd 23bd
0.42188895 0.24794145 -0.43127254 -0.039990436

fc.bias f4 [2]
00000000: c415 563e 3a11 de3e
0.2090674 0.43372518
