RGCN/model/trained_model/ponzi_rgcn_1434_493-1000-1740744971.6898012.pt (torch, 18608 bytes, 8 tensors)

conv1.h_bias f4 [16]
0.21400882 0.3098577 0.07137751 0.184283 0.29688615 0.30776462 0.25238794 0.17734098
0.1962981 0.48111376 0.20830476 0.25150234 0.057111904 0.078003235 0.18782811 0.5303792
00000000: 2125 5b3e aba5 9e3e 5f2e 923d afb4 3c3e
00000010: 7601 983e 5393 9d3e fe38 813e e098 353e
00000020: 5e02 493e 8b54 f63e d84d 553e eac4 803e
00000030: 2cee 693d 29c0 9f3d 0356 403e eec6 073f

conv1.linear_r.W f4 [3, 74, 16]
0.23998736 0.36952764 -0.26011488 -0.13743038 -0.34403217 0.3215293 -0.4004165 -0.10500705
-0.31808177 -0.2219502 0.31568676 0.18366536 -0.30734998 -0.12755811 -0.3534922 -0.4488635
-0.30644226 -0.30403927 -0.32301074 0.6245525 0.53309846 -0.25597757 0.98499113 0.537581
0.5203306 0.35716227 -0.26694924 -0.092480674 -0.42493698 -0.433157 0.58917576 0.97973263
0.2047899 -0.12217258 0.07041249 0.24366814 -0.11202657 -0.03861486 -0.03719285 0.18081853
-0.009346959 0.03157178 0.18832026 0.44449836 0.04945003 0.2891893 -0.07812577 -0.16072346
0.42059243 0.12582606 -0.43476808 0.05395722 0.13818161 0.15741983 0.1414369 0.4090047
0.07792542 -0.28974125 0.49241275 -0.22140126 -0.079707205 -0.25142524 0.24209888 0.021300133
0.126354 0.16385713 -0.13067143 0.22790186 0.061979216 0.23997255 0.05236522 0.012873468
0.024609653 0.12931839 0.11913787 0.09779846 -0.092200436 0.101074725 0.107326016 0.0070291436
0.061596524 -0.1368774 0.1413139 -0.071396776 0.08129082 -0.11356973 0.06826686 -0.02442214
0.010233726 -0.12584886 -0.011058843 0.10075247 0.106132455 0.14253928 0.11313426 -0.14384629
-0.15107559 -0.20861228 0.30244222 -0.10777345 -0.16121645 -0.103243686 -0.058691025 -0.0843863
-0.07760571 -0.11888952 -0.012957377 -0.16672313 0.1216442 0.2560413 -0.07847601 -0.08611795
-0.10868625 0.068996236 0.32805812 -0.98591113 -0.10115116 0.006798804 0.13037008 -0.043596175
-0.043276615 0.34078857 -0.11675036 -0.242637 0.36274448 0.2539816 -0.13060598 0.16916214
0.20870404 -0.23623139 -0.5986917 0.17680098 -0.20853113 -0.15294878 0.09668131 0.25117946
-0.11113124 -0.4007486 0.077534005 0.23552889 -0.5147811 -0.84713715 -0.02260219 -0.3763794
-0.049822003 0.30925074 0.30563036 -0.08988256 -0.21951209 -0.13385792 -0.32333568 0.024992354
-0.085425265 -0.70338017 0.1272433 0.086267434 0.2980027 -0.10898799 -0.08403739 -0.5219472
0.25592685 -0.11541041 -0.54952395 0.464 0.07245187 -0.16638002 -0.07298911 0.3561334
0.10179117 -0.14513037 0.55007005 0.5015877 -0.47541946 0.7610503 0.11179387 -0.021338351
0.87769675 0.7402767 -0.05493937 0.758918 0.7863506 0.37168673 0.38387236 0.8677655
0.86310303 0.009620234 0.807187 0.82729083 -0.12137083 -0.09834253 0.85257405 0.038115896
0.05917271 -0.07125579 0.45777828 0.07135983 0.03891351 0.09447975 -0.008298759 0.06097531
0.10135807 0.03864176 0.048219923 0.014754117 -0.19777957 -0.37771705 -0.054306734 -0.12990612
0.060883973 0.06721424 0.34418333 -0.20960379 0.0128646055 -0.17026895 -0.22136891 -0.08461203
-0.044609886 -0.29791927 0.028999373 -0.5565925 0.39678448 0.19784792 -0.09163812 -0.33399183
0.1519828 -0.13264099 -0.8657523 -0.034411673 0.45171094 0.72639716 -0.7049606 -0.09847628
0.47980252 0.80391294 -0.090985216 -0.18412203 0.24205652 -0.81246 0.02369983 0.6143961
-0.10420728 -0.121140495 0.6385856 -0.60770464 -0.06336322 -0.19075167 -0.20536846 -0.29916304
-0.22765023 -0.023450289 -0.18004961 -0.2665668 0.5148531 0.4942303 -0.1594681 -0.31844184
00000000: 3fbf 753e ba32 bd3e c72d 85be 8dba 0cbe
00000010: fc24 b0be 7d9f a43e 6403 cdbe f00d d7bd
00000020: 9ddb a2be ea46 63be b2a1 a13e c612 3c3e
00000030: fa5c 9dbe 989e 02be eefc b4be 70d1 e5be
00000040: 00e6 9cbe 09ab 9bbe aa61 a5be ace2 1f3f
00000050: 2479 083f 7e0f 83be 6128 7c3f e99e 093f
00000060: 6334 053f f9dd b63e 92ad 88be 8266 bdbd
00000070: 5791 d9be c1c6 ddbe 39d4 163f c2cf 7a3f
00000080: 72b4 513e 9e35 fabd 6c34 903d 2484 793e
00000090: 306e e5bd 9e2a 1ebd 8857 18bd 7e28 393e
000000a0: fd23 19bc 6951 013d 07d7 403e 4a95 e33e
000000b0: 1d8c 4a3d 9f10 943e 6700 a0bd b194 24be
000000c0: e457 d73e 8cd8 003e ec99 debe 3f02 5d3d
000000d0: 7b7f 0d3e aa32 213e d6d4 103e 1069 d13e
000000e0: 5d97 9f3d f758 94be 861d fc3e 03b7 62be
000000f0: 883d a3bd cfba 80be c5e8 773e 9e7d ae3c
00000100: f162 013e 2aca 273e bbce 05be 1b5f 693e
00000110: ebdd 7d3d 5dbb 753e ea7c 563d 3deb 523c
00000120: 2f9a c93c 0a6c 043e 8efe f33d 8f4a c83d
00000130: 95d3 bcbd 4400 cf3d becd db3d bb54 e63b
00000140: a34c 7c3d 9729 0cbe 97b4 103e 7938 92bd
00000150: cd7b a63d 3f97 e8bd 7fcf 8b3d f110 c8bc
00000160: 5cab 273c 86de 00be 2630 35bc 5057 ce3d
00000170: f95b d93d d1f5 113e efb2 e73d 714c 13be
00000180: 8fb3 1abe 759e 55be b5d9 9a3e 54b8 dcbd
00000190: ed15 25be 6d71 d3bd 0066 70bd b9d2 acbd
000001a0: beef 9ebd 597c f3bd 2e4b 54bc 78b9 2abe
000001b0: 9820 f93d d817 833e 08b8 a0bd 9c5e b0bd
000001c0: e696 debd e64d 8d3d 3cf7 a73e ac64 7cbf
000001d0: 5728 cfbd 80c8 de3b bc7f 053e e791 32bd
000001e0: d242 31bd d77b ae3e d01a efbd d575 78be
000001f0: a5b9 b93e e009 823e 93bd 05be d738 2d3e
00000200: 83b6 553e a4e6 71be dc43 19bf 510b 353e
00000210: 2f89 55be 9b9e 1cbe da00 c63d 989a 803e
00000220: c798 e3bd ec2e cdbe 26ca 9e3d 7c2e 713e
00000230: b2c8 03bf fbdd 58bf 3a28 b9bc cdb4 c0be
00000240: 2812 4cbd 1d56 9e3e 957b 9c3e 5914 b8bd
00000250: c7c7 60be 0d12 09be 418c a5be c4bc cc3c
00000260: 71f3 aebd b910 34bf 114c 023e fbac b03d
00000270: cf93 983e 1835 dfbd cc1b acbd 559e 05bf
00000280: d808 833e 4b5c ecbd 9aad 0cbf 6891 ed3e
00000290: a561 943d 865f 2abe 517b 95bd 1e57 b63e
000002a0: e477 d03d 0e9d 14be 64d1 0c3f 0d68 003f
000002b0: 2e6a f3be 31d4 423f 2ff4 e43d c4cd aebc
000002c0: bcb0 603f c682 3d3f 1b08 61bd 7348 423f
000002d0: 464e 493f b94d be3e eb8a c43e e125 5e3f
000002e0: 52f4 5c3f 309e 1d3c cfa3 4e3f 55c9 533f
000002f0: 4591 f8bd cf67 c9bd 4b42 5a3f 6a1f 1c3d
00000300: 155f 723d 8eee 91bd ea61 ea3e 1a25 923d
00000310: c663 1f3d 997e c13d 85f7 07bc 3fc1 793d
00000320: d294 cf3d d246 1e3d 4182 453d 40bb 713c
00000330: ba86 4abe 2164 c1be bd70 5ebd 1c06 05be
00000340: 7961 793d 9fa7 893d cc38 b03e 60a2 56be
00000350: 11c6 523c fc5a 2ebe 88ae 62be 1249 adbd
00000360: dbb8 36bd e088 98be 1890 ed3c d97c 0ebf
00000370: 5627 cb3e a598 4a3e c4ac bbbd fa00 abbe
00000380: 61a1 1b3e 0ad3 07be f1a1 5dbf 41f3 0cbd
00000390: a846 e73e 2af5 393f 4c78 34bf efad c9bd
000003a0: ada8 f53e 3dcd 4d3f 7556 babd 7c8a 3cbe
000003b0: aadd 773e 61fd 4fbf 2526 c23c 1049 1d3f
000003c0: a06a d5bd 8218 f8bd 597a 233f 8892 1bbf
000003d0: 93c4 81bd 6854 43be 1c4c 52be e62b 99be
000003e0: 241d 69be d21a c0bc ed5e 38be 727b 88be
000003f0: 6acd 033f c10b fd3e 9b4b 23be cf0a a3be

conv1.linear_r.coeff f4 [3, 3]
1.6504058 -0.8097921 1.611082 -0.79180604 -1.1085254 2.1833034 0.6587853 1.1659329
0.7485932
00000000: 7f40 d33f 894e 4fbf ef37 ce3f cdb3 4abf
00000010: 29e4 8dbf 3ebb 0b40 27a6 283f 4a3d 953f
00000020: cea3 3f3f

conv2.h_bias f4 [2]
0.181558 -0.1874205
00000000: 57ea 393e 29eb 3fbe

conv2.linear_r.W f4 [3, 16, 2]
0.11883351 -0.41535833 0.13383429 -0.1808759 -0.53458387 0.47657046 0.5503625 -0.22073929
0.03540092 -0.38490397 0.07602883 0.0027249856 0.114798255 -0.06043558 0.47353953 -0.38153845
0.35528463 0.012655773 -0.12420853 0.098840445 0.39031866 -0.4092466 0.5977625 -0.23663458
-0.5463969 0.21952799 -0.0048323073 0.24229075 0.18823124 -0.36428672 -0.031922366 0.11281834
0.27846345 -0.36416826 0.6050974 -0.8966849 -0.19429554 0.47827485 0.043896396 -0.36797333
0.6375772 -0.20809087 0.51286817 -0.49837765 0.14181861 -0.40357074 0.18625546 -0.3356824
0.19680603 -0.2380707 0.26570174 -0.3619778 0.38815776 -0.038407523 0.32227805 0.049536496
-0.4690526 0.60988843 -0.5378355 0.5728672 0.3486232 -0.37218988 0.4341246 -0.53980875
0.24637152 -0.43438703 0.8991413 -0.8662488 -0.62842256 0.6128749 -0.25021473 0.26802328
0.77078027 -0.8537305 0.88501656 -0.92181253 0.7374235 -0.72331154 -0.12920946 0.029639453
0.5680396 -0.26167935 0.9705519 -0.9452454 0.11168457 0.12385638 -0.5070417 0.49490118
-0.3094748 0.39777124 -0.7992253 0.97503424 0.28057113 -0.42941183 0.8326689 -0.8056972
00000000: fc5e f33d d9a9 d4be db0b 093e 8837 39be
00000010: 7dda 08bf 0b01 f43e 8fe4 0c3f 7b09 62be
00000020: 8e00 113d 2212 c5be 01b5 9b3d ac95 323b
00000030: 591b eb3d 4c8b 77bd c673 f23e 0259 c3be
00000040: dee7 b53e 295a 4f3c 0b61 febd dc6c ca3d
00000050: d9d7 c73e c588 d1be f706 193f 5650 72be
00000060: abe0 0bbf f2cb 603e 5558 9ebb 111b 783e
00000070: b1bf 403e ca83 babe 07c1 02bd 4d0d e73d
00000080: c392 8e3e 4374 babe aae7 1a3f 248d 65bf
00000090: 69f5 46be 71e0 f43e b5cc 333d 0067 bcbe
000000a0: 4238 233f c615 55be 544b 033f 5b2b ffbe
000000b0: e638 113e d3a0 cebe c0b9 3e3e 90de abbe
000000c0: 8587 493e cec8 73be 0f0a 883e 2755 b9be
000000d0: 9dbc c63e 3551 1dbd a101 a53e c8e6 4a3d
000000e0: aa27 f0be a621 1c3f 96af 09bf 6da7 123f
000000f0: bd7e b23e ac8f bebe 9445 de3e e830 0abf
00000100: d148 7c3e fa67 debe 202e 663f 7bc2 5dbf
00000110: 4de0 20bf 5fe5 1c3f 251c 80be 593a 893e
00000120: db51 453f 158e 5abf 7290 623f e8fb 6bbf
00000130: c9c7 3c3f f22a 39bf 7c4f 04be 70ce f23c
00000140: 0b6b 113f d6fa 85be 1776 783f 9afb 71bf
00000150: e1ba e43d 6aa8 fd3d 7ccd 01bf b063 fd3e
00000160: 7b73 9ebe aca8 cb3e 079a 4cbf d89b 793f
00000170: 05a7 8f3e dedb dbbe ca29 553f 2c42 4ebf

conv2.linear_r.coeff f4 [3, 3]
1.2326322 1.1219198 0.9447248 2.0220823 -0.31511617 -1.5950316 1.3874489 0.27476308
-0.22913633
00000000: e4c6 9d3f 119b 8f3f 7cd9 713f cc69 0140
00000010: e856 a1be ff29 ccbf ed97 b13f bfad 8c3e
00000020: b7a2 6abe

fc.weight f4 [2, 2]
1.4583043 -1.1967498 -1.7840108 1.8773268
00000000: b7a9 ba3f 192f 99bf 775a e4bf 3f4c f03f

fc.bias f4 [2]
0.8476789 0.5229259
00000000: 7c01 593f 79de 053f
