RGCN/model/trained_model/ponzi_rgcn_1434_9-10-1740743625.8256826.pt (torch, 18560 bytes, 8 tensors)

conv1.h_bias f4 [16]
0	0xbcef2a43	-0.029194957
1	0xbcf95b21	-0.030438961
2	0x3d8a091a	0.06740017
3	0xbccd6cd6	-0.025076311
4	0x3d875ec9	0.06609876
5	0x3d8b23de	0.067939505
6	0xbc9c0a76	-0.019047957
7	0xbcb1f965	-0.021725366
8	0x3b3f79f0	0.0029216968
9	0xbc1e9e38	-0.009681277
10	0x3d2a58a5	0.041588444
11	0x3db25f0c	0.08709535
12	0x3d9d9018	0.07693499
13	0x3d85e061	0.065369375
14	0x3d808e43	0.06277134
15	0xbcaa320d	-0.02077582

conv1.linear_r.W f4 [3, 74, 16]
0	0x3d3bab43	0.045817625
1	0x3c976c77	0.018484337
2	0xbd2a25de	-0.04154002
3	0x3d2ca39c	0.042148218
4	0xbda92dda	-0.082606986
5	0xbd3e970d	-0.046530772
6	0x3db25e87	0.08709436
7	0x3d0b26d1	0.033972565
8	0x3d4cffbd	0.05004858
9	0xbdcbb44e	-0.099465
10	0x3e375d75	0.17906745
11	0xbc206324	-0.009789262
12	0xbd78a3b3	-0.06070299
13	0x3d5df554	0.05418904
14	0xbd7cd3c2	-0.061725385
15	0xbdddbb72	-0.10826768
16	0x3cd570ec	0.026054822
17	0xbd9d6587	-0.076853804
18	0xbd8e1fee	-0.06939684
19	0x3d47a44e	0.048740678
20	0x3d7f9f4f	0.062407788
21	0xbd220ef0	-0.039565027
22	0xbde22f19	-0.110441394
23	0x3bdd9664	0.0067623127
24	0x3c1c6da1	0.009547622
25	0x3c8b5756	0.017009418
26	0x3beace18	0.0071656816
27	0x3d8315d1	0.064006455
28	0x3d86c872	0.06581201
29	0x3d908c4f	0.07058012
30	0x3d875eb4	0.0660986
31	0xba8d4a9d	-0.0010779683
32	0x3d24445a	0.040104248
33	0x3d7d6daa	0.061872162
34	0x3c887174	0.016655661
35	0xbc3478f4	-0.011015166
36	0xbd2a175a	-0.041526176
37	0x3d9b3bb8	0.0757975
38	0xbda62beb	-0.081138454
39	0x3d80062c	0.06251177
40	0x3d7dff4b	0.062011044
41	0x3b979a76	0.0046265675
42	0xbd047db2	-0.032346435
43	0xbcc83bbd	-0.024442548
44	0xbc341c81	-0.010993124
45	0x3da3d77c	0.08000085
46	0xbc96e89e	-0.018421467
47	0x3d23c70e	0.039984755
48	0x3d8d635e	0.069037184
49	0x3d9f2a29	0.07771713
50	0x3bd219b8	0.0064117573
51	0xbdc6cf79	-0.09707541
52	0x3ddc43a4	0.10755089
53	0xbcb9d669	-0.022685247
54	0xbd12b184	-0.035813823
55	0x3ccb485a	0.024814773
56	0xbdc49b30	-0.09599912
57	0xbd7dd927	-0.06197467
58	0xbaa85d5b	-0.0012845205
59	0x3d05ce93	0.032667708
60	0xbd7914dc	-0.06081091
61	0xbd7d62bc	-0.06186174
62	0x3c545b88	0.012961276
63	0x3d84e692	0.0648929
64	0x3d4cd51e	0.050007932
65	0x3caaf3dd	0.020868236
66	0xbce7bbdf	-0.028287826
67	0xbc593175	-0.01325642
68	0xbb8874e8	-0.004164327
69	0xbc4a5285	-0.012348776
70	0xbd732380	-0.059360027
71	0x3da86ace	0.082234964
72	0xbd5ca275	-0.05386587
73	0xbb94eff3	-0.0045452057
74	0x3d5a8c79	0.05335662
75	0x3d94bd56	0.072626755
76	0xbd18206d	-0.0371403
77	0xbcfb1585	-0.03064991
78	0x3e1d62a9	0.15369667
79	0x3dc3bf8a	0.095580176
80	0xbd15a070	-0.03652996
81	0x3dcdfaa5	0.10057572
82	0x3daf9e73	0.08575144
83	0xbd832b77	-0.06404775
84	0x3c8b2c7a	0.016988982
85	0x3e0fe49f	0.14052056
86	0x3d7dbf2a	0.061949886
87	0xbd52ed27	-0.051495697
88	0xbdb81809	-0.08988959
89	0xbd6329ed	-0.055459905
90	0x3e40d822	0.18832448
91	0x3cc93d42	0.024565343
92	0xbd874a16	-0.06605928
93	0x3dc731a4	0.09726265
94	0x3da886b2	0.08228816
95	0xbdaf9123	-0.085726045
96	0xbc03c9e1	-0.008043737
97	0xbd4b2759	-0.04959807
98	0x3e15d798	0.14633024
99	0xbd391eca	-0.04519538
100	0x3cec6d90	0.028860837
101	0x3e0d3756	0.1379064
102	0x3d87abe9	0.06624586
103	0x3a6c7f81	0.0009021685
104	0xbdea45ba	-0.114390805
105	0xbbc9b2e2	-0.0061553577
106	0x3e02bc44	0.1276713
107	0xbbafb4b3	-0.005362117
108	0x3d008027	0.031372216
109	0x3c0b8fdd	0.008518186
110	0xbdabd879	-0.08390898
111	0x3d0f9ce5	0.035061736
112	0x3d8276d7	0.06370323
113	0xbc1b8148	-0.009491272
114	0x3d23e404	0.040012375
115	0xbd61340c	-0.054981276
116	0x3d6bbecc	0.057555005
117	0x3db6b068	0.089203656
118	0x3d4c2d47	0.049847867
119	0xbd06fcfb	-0.032956105
120	0x3de17087	0.11007791
121	0x3d275d81	0.040860657
122	0x3e181781	0.14852716
123	0x3c8e21e8	0.017350152
124	0x3e30738d	0.17231579
125	0x3b77a524	0.003778764
126	0xbc6bb2c5	-0.014385884
127	0x3cce7f5c	0.025207214
128	0xbd7bd270	-0.061479986
129	0xbdb73989	-0.08946521
130	0x3c82a628	0.01594837
131	0x3c9e0593	0.019289767
132	0x3dde0530	0.10840833
133	0xbc89d7f7	-0.016826613
134	0xbcc9e3d4	-0.02464477
135	0x3df1de8a	0.11810024
136	0x3b2ecbcc	0.0026671765
137	0x3d8c8fd7	0.06863373
138	0xbd2439fb	-0.040094357
139	0x3d3df524	0.046376362
140	0x3d762a7f	0.06009912
141	0x3d880602	0.06641771
142	0x3d714095	0.05889948
143	0x3d37eeaa	0.044905342
144	0xbdb27c69	-0.087151356
145	0xbd274dc2	-0.04084564
146	0x3dfb22e0	0.12262511
147	0xbca7b793	-0.020473277
148	0x3d926dbc	0.071498364
149	0x3dba8245	0.09106878
150	0xbb986025	-0.004650133
151	0xbd8c814f	-0.06860601
152	0x3d5c9476	0.05385252
153	0xbdfbe6d5	-0.12299887
154	0x3daa862f	0.08326375
155	0x3e3a1a4d	0.18174095
156	0xbd9f8749	-0.077894755
157	0x3dee68d5	0.11641089
158	0xbdccf52c	-0.100077
159	0xbddc2c8c	-0.10750684
160	0x3d51f6f9	0.051260922
161	0xbc471e8a	-0.012153277
162	0xbd0ec88c	-0.034859225
163	0x3c53d0a2	0.01292816
164	0x3d7f1c79	0.062283013
165	0x3b9c9af5	0.0047792145
166	0x3d86023d	0.06543396
167	0x3db739f7	0.08946603
168	0xbe0856bb	-0.13314335
169	0xbc8810ca	-0.016609568
170	0xbdce1450	-0.10062468
171	0x3c60d2cb	0.013722132
172	0xbe07fc2b	-0.13279788
173	0xbe04e060	-0.12976217
174	0xbd70fda8	-0.058835655
175	0xbc8b2742	-0.016986493
176	0x3d7b5e48	0.06136921
177	0xbd782ef5	-0.060591657
178	0xbca58fe3	-0.020210212
179	0x3cf0ca2f	0.029393284
180	0x3dd687ca	0.104751185
181	0xbdb34712	-0.0875379
182	0x3da9627a	0.08270736
183	0xbda53c7b	-0.08068176
184	0x3ddafb0c	0.10692415
185	0xbb8ea776	-0.004353459
186	0x3dd8bd65	0.10582999
187	0x3ae5adb4	0.0017523081
188	0x3dcef394	0.101050526
189	0x3ddc72f3	0.10764112
190	0x3cb00520	0.021486819
191	0x3d9a332f	0.07529294
192	0xbd1b8f92	-0.037978716
193	0xbd77b28f	-0.06047302
194	0x3dd9cd75	0.10634891
195	0x3c4228ee	0.011850579
196	0x3d848265	0.06470183
197	0x3de168cd	0.11006317
198	0xbc0fab45	-0.008768861
199	0x3d24f961	0.04027689
200	0xbd0ccb82	-0.034373768
201	0xbd951809	-0.07279975
202	0x3de3b96a	0.11119349
203	0x3d0bf4ae	0.03416889
204	0x3dda657a	0.10663886
205	0xbd6a3e59	-0.057188366
206	0xbde59ef0	-0.112119555
207	0x3cdc8eed	0.026923621
208	0xbdd4f663	-0.10398557
209	0x3d27f8e8	0.04100886
210	0xbcf0726d	-0.029351437
211	0x3d14c1ce	0.03631764
212	0xbde5a06b	-0.11212238
213	0x3d45e9d8	0.048318714
214	0x3c97a946	0.018513333
215	0x3d9b766a	0.07590945
216	0x3d6a4542	0.057194956
217	0x3d1bb17b	0.038011055
218	0xbb22f283	-0.0024863787
219	0xbbda4ab0	-0.0066617355
220	0x3c22b492	0.009930747
221	0x3d618049	0.055053983
222	0xbdbad0ee	-0.091218814
223	0x3daa334a	0.08310564
224	0xbd78d17d	-0.06074666
225	0xbdb1bd6d	-0.08678708
226	0x3d8b85d1	0.06812633
227	0x3b7a30d2	0.0038176072
228	0x3e225e52	0.15856293
229	0xbd56cb3c	-0.052439913
230	0xbbbdb52a	-0.0057894187
231	0xbdd95c20	-0.106132746
232	0x3dea21a2	0.11432196
233	0x3d8f901c	0.070099086
234	0xbd3764af	-0.044773754
235	0x3ddb5217	0.10709017
236	0xbceca5a2	-0.028887574
237	0x3dd2d272	0.102940455
238	0x3e1f6fe7	0.15570031
239	0x3d4162bf	0.047213312
240	0xbd1bb676	-0.038015805
241	0xbd2c4837	-0.042061057
242	0x3d36376c	0.04448645
243	0xbdcb0bc8	-0.099143565
244	0x3be569b9	0.0070011285
245	0xbdbc6ed1	-0.09200824
246	0xbdd76bac	-0.10518584
247	0xbdc04f15	-0.09390084
248	0x3d7b6e89	0.06138471
249	0xbda91441	-0.08255816
250	0x3d64d371	0.05586571
251	0xbd2a72c2	-0.041613348
252	0xbd1edf31	-0.03878707
253	0xbdcd4728	-0.100233376
254	0x3d1a597c	0.037682995
255	0x3d16cdbb	0.036817294

conv1.linear_r.coeff f4 [3, 3]
0	0x3ed04131	0.40674737
1	0x3effcc26	0.4996044
2	0xbf0d2cd7	-0.55146545
3	0x3fb80628	1.4376879
4	0x3f2ed93f	0.6830024
5	0x3efebed5	0.49754968
6	0x3ec1be28	0.3784039
7	0xbeff36bc	-0.49846447
8	0x3f2e6774	0.68126607

conv2.h_bias f4 [2]
0	0xbd541ad4	-0.051783398
1	0xbd4e16d6	-0.050314747

conv2.linear_r.W f4 [3, 16, 2]
0	0x3e199fb7	0.15002333
1	0xbba30708	-0.0049752034
2	0xbe5f6d1c	-0.21818966
3	0xbe4dea04	-0.20108801
4	0xbe0f3970	-0.13986754
5	0x3e820235	0.2539231
6	0xbd2f6d55	-0.042828877
7	0xbc649b17	-0.013952992
8	0x3e7a8029	0.24462952
9	0x3df25f35	0.118345656
10	0x3d870e3a	0.065945104
11	0x3e7a367c	0.24434847
12	0xbdfc9ec4	-0.1233497
13	0xbd80e0dd	-0.06292889
14	0xbc002db4	-0.0078233965
15	0xbe0cd754	-0.13754016
16	0xbdfa7237	-0.12228816
17	0x3e5d29a9	0.21597923
18	0xbd8f805a	-0.07006903
19	0x3e0ad210	0.13556695
20	0xbe294415	-0.16529877
21	0xbd1db006	-0.038497947
22	0xbd86bb96	-0.06578748
23	0x3e6c962b	0.2310416
24	0xbc378a09	-0.011202344
25	0x3dfa07b2	0.12208499
26	0xbd16cd8a	-0.03681711
27	0x3e48bfbc	0.19604391
28	0xbd84ac27	-0.06478148
29	0x3e6b521e	0.22980544
30	0xbdbe3593	-0.09287562
31	0xbe0f678c	-0.14004344
32	0xbe11c5fc	-0.14235681
33	0xbdfc75bc	-0.123271435
34	0x3dd6436f	0.10462081
35	0x3da9e0a3	0.08294799
36	0x3e8886a6	0.2666523
37	0x3dc660f9	0.09686465
38	0xbd40a56c	-0.04703276
39	0xbc9e5ee5	-0.019332359
40	0x3e8652b0	0.2623496
41	0x3e7b04be	0.24513528
42	0x3e5ba76f	0.2145059
43	0x3c38151d	0.011235503
44	0xbda2f139	-0.07956166
45	0xbc7322a7	-0.014839805
46	0x3e3050da	0.17218342
47	0x3e0f28a7	0.13980351
48	0x3db88c23	0.09011104
49	0xbe2dda96	-0.16977915
50	0xbe1c8883	-0.1528645
51	0xbc594e38	-0.013263278
52	0xbdd56ad3	-0.10420766
53	0x3dda7756	0.10667293
54	0xbc29284f	-0.010324552
55	0x3d737cd0	0.059445202
56	0x3e80faee	0.25191444
57	0xbe007f79	-0.12548627
58	0x3e88b0e0	0.26697445
59	0x3e658e71	0.22417618
60	0x3e170b6d	0.14750452
61	0xbe2a7ecb	-0.1664993
62	0xbe3b5ffb	-0.18298332
63	0x3dceec3b	0.10103651
64	0x3dd6a288	0.10480219
65	0x3c84106b	0.01612111
66	0x3d8adc42	0.06780292
67	0x3d79a192	0.0609451
68	0xbe39c084	-0.18139845
69	0xbde3ee3b	-0.11129423
70	0x3b4913b5	0.0030681912
71	0x3e4451a0	0.19171762
72	0xbe28c669	-0.16481937
73	0x3e04bbd3	0.12962274
74	0xbe58f209	-0.21186079
75	0xba2a14b4	-0.00064880704
76	0x3c4ab57b	0.01237237
77	0xbe56b64e	-0.20967981
78	0x3e67fd0b	0.22655122
79	0x3e3f6082	0.18689159
80	0xbe5f952b	-0.21834247
81	0x3bd41011	0.006471642
82	0xbe04310d	-0.12909336
83	0xbc9c3fe7	-0.01907344
84	0xbe9f9147	-0.31165525
85	0xbe310085	-0.17285354
86	0xbe95f0fe	-0.29285425
87	0x3d1c4316	0.038149916
88	0xbbf9b980	-0.0076209903
89	0xbe9b3da0	-0.30320454
90	0xbe9f6ff9	-0.31140116
91	0xbc0f73ae	-0.0087556075
92	0x3cad2881	0.021137478
93	0xbe7b3b5c	-0.24534363
94	0x3e66365a	0.22481671
95	0x3d9ae488	0.0756312

conv2.linear_r.coeff f4 [3, 3]
0	0xbf2bd8d1	-0.6712771
1	0xbefac006	-0.48974627
2	0x3f543dbf	0.8290672
3	0x3f646c14	0.89227414
4	0x3ce8dcba	0.028425563
5	0xbf9488cd	-1.1604248
6	0xbf92ccb7	-1.1468724
7	0xbfb85b82	-1.4402926
8	0xbf860d4f	-1.0472811

fc.weight f4 [2, 2]
0	0xbef8ddc6	-0.486067
1	0xbf437d32	-0.7636291
2	0x3e30dc18	0.17271459
3	0x3f18747a	0.5955273

fc.bias f4 [2]
0	0xbed1e274	-0.40993083
1	0xbf417be8	-0.7557969
