RGCN/model/trained_model/ponzi_rgcn_1434_9-10-1740742896.870815.pt (torch, 18484 bytes, 8 tensors)

conv1.h_bias f4 [16]
0.07191544 0.07389902 0.063762106 0.056300692 0.027539428 0.059677746 -0.0142229935 -0.034142572
-0.03156961 -0.0025362282 0.036097202 0.00087986735 -0.028904824 0.05752684 0.035478808 0.059642125
00000000: 6748 933d 5f58 973d b595 823d 8e9b 663d
00000010: 5e9a e13c a770 743d 8f07 69bc 15d9 0bbd
00000020: 234f 01bd d936 26bb a9da 133d e6a6 663a
00000030: cfc9 ecbc 44a1 6b3d 3a52 113d 4d4b 743d

conv1.linear_r.W f4 [3, 74, 16]
0.072688185 0.121659175 -0.0626745 0.051246878 0.16522597 0.043918412 0.01590608 -0.008965814
0.077882044 0.030623337 0.010333191 0.06382543 0.13395226 -0.087428965 0.042169455 0.009241056
-0.050035626 -0.15297136 0.15104085 0.080174714 -0.0037045411 0.06973521 0.033654794 0.051098593
-0.03654434 0.021547193 -0.054163285 0.036734212 0.1184858 -0.031044679 0.0824233 0.09873788
-0.120799325 -0.18155842 -0.16634738 -0.017134007 0.048721705 0.044054087 -0.0021635946 0.10569698
-0.046436902 -0.044998385 -0.020041764 -0.026332451 0.13310143 -0.06539142 -0.10733939 -0.124808565
0.0027546599 -0.1005033 -0.0838981 -0.046099883 0.041894615 -0.038527917 0.10967184 -0.022061441
-0.005188047 0.09868515 0.07524131 0.048815228 0.110930495 0.00047352773 0.10914673 -0.018405499
-0.028666483 -0.039277025 -0.13647513 0.008982392 -0.05156395 -0.1399104 0.065747805 0.00893542
-0.052834686 0.04760238 -0.07984008 0.12470416 -0.0071389778 -0.02043649 -0.016365645 -0.04800517
-0.02762571 -0.022570092 0.051067617 0.07629384 -0.008232202 0.07243671 0.06570705 -0.034543294
-0.10244489 0.072989546 -0.09875985 -0.051475633 0.08951472 -0.0923404 0.08335595 -0.1679768
-0.09369207 -0.07501564 -0.12525292 -0.07363747 0.027183134 -0.1533722 0.06046278 0.07544281
0.041019116 0.09439457 0.042960458 0.021768598 0.061338115 -0.012147311 -0.029570324 0.010599887
0.055904042 0.17424779 0.087303214 0.0673685 0.11048469 -0.0062275752 0.015743166 -0.07930448
0.014481873 0.08301484 0.123998 0.09657304 0.016545126 0.055657286 -0.02587358 0.03367948
0.06495222 -0.03393803 0.006990423 0.0058099693 -0.033896834 -0.14358868 -0.04019789 -0.07081011
-0.025058296 -0.034922346 -0.05928918 0.10005888 0.017057285 -0.02889851 -0.056791004 -0.04890341
-0.12339332 0.0625927 -0.14694637 0.043836135 -0.050056763 0.01348546 -0.10289797 -0.11784761
0.089775085 0.13052283 -0.12558314 0.062239286 0.09432765 -0.10145799 -0.13134706 -0.038649224
0.10818291 -0.12070415 0.14136867 0.048124973 -0.017686278 -0.12880711 -0.039764374 0.10397499
0.06822716 0.04911414 0.039740305 -0.106894195 0.025077993 -0.0010868007 -0.1447247 0.04786936
-0.06857463 0.048124325 -0.094101705 -0.024037533 0.06883536 -0.03329112 -0.015298414 0.0907476
-0.03207087 -0.04912538 -0.055925112 -0.103224315 0.03900289 0.044435482 0.08363148 -0.041261405
-0.007845784 0.08087544 0.13149203 -0.16227707 0.08684328 -0.0317249 -0.039013494 0.14003272
0.0023457496 0.05905318 0.11790814 0.03416466 0.1254364 -0.008223724 -0.0881947 -0.09110241
0.072965816 0.09417323 0.14136274 0.15114044 -0.1277781 0.09736274 0.0029507803 0.052004784
-0.03085051 0.009605591 0.098120034 -0.026052792 -0.034300294 0.14559418 -0.07673702 -0.11814574
0.033145767 0.0035037373 -0.003194314 0.062649004 -0.07277925 -0.1660483 -0.094025485 -0.06901615
0.08674782 -0.093510464 -0.032883894 0.078754075 -0.00988074 -0.117392406 0.035494693 -0.08529108
0.04625274 -0.08348648 0.05199585 0.10591002 0.09879595 -0.12865764 0.16123669 0.109800324
-0.08061363 -0.10918118 0.00574513 -0.09112398 0.05444683 0.05997694 -0.07782935 0.07599264
00000000: 8bdd 943d 7228 f93d 7d5b 80bd 3fe8 513d
00000010: ff30 293e cbe3 333d 784d 823c 59e5 12bc
00000020: 9f80 9f3d cbdd fa3c 8b4c 293c e8b6 823d
00000030: c82a 093e f50d b3bd e1b9 2c3d cc67 173c
00000040: 28f2 4cbd 86a4 1cbe 74aa 1a3e a432 a43d
00000050: e3c7 72bb 55d1 8e3d 9cd9 093d c24c 513d
00000060: 85af 15bd bd83 b03c 52da 5dbd 9d76 163d
00000070: afa8 f23d 6951 febc 8ccd a83d 1637 ca3d
00000080: a365 f7bd 73ea 39be f856 2abe 9e5c 8cbc
00000090: 6990 473d 0f72 343d 18cb 0dbb a977 d83d
000000a0: 9f34 3ebd 3a50 38bd a02e a4bc 27b7 d7bc
000000b0: be4b 083e f0eb 85bd c1d4 dbbd a29b ffbd
000000c0: 8687 343b add4 cdbd c4d2 abbd 3bd3 3cbd
000000d0: b099 2b3d 73cf 1dbd a19b e03d 32ba b4bc
000000e0: 7e00 aabb 711b ca3d 1e18 9a3d 7af2 473d
000000f0: 872f e33d d143 f839 5288 df3d 21c7 96bc
00000100: f9d5 eabc f2e0 20bd 23c0 0bbe e22a 133c
00000110: b834 53bd ac44 0fbe c9a6 863d de65 123c
00000120: 2f69 58bd b7fa 423d 3283 a3bd e564 ff3d
00000130: 16ee e9bb 6d6a a7bc 3f11 86bc 12a1 44bd
00000140: 504f e2bc eae4 b8bc 472c 513d f23f 9c3d
00000150: 5ce0 06bc b359 943d 6b91 863d 457d 0dbd
00000160: a0ce d1bd 8b7b 953d 9b42 cabd 1dd8 52bd
00000170: 7e53 b73d f71c bdbd 86b6 aa3d 1c02 2cbe
00000180: a1e1 bfbd cda1 99bd 4d42 00be 3ecf 96bd
00000190: 2aaf de3c 9a0d 1dbe d2a7 773d c381 9a3d
000001a0: a903 283d f151 c13d 4ef7 2f3d 0f54 b23c
000001b0: ad3d 7b3d 8405 47bc 773d f2bc 26ab 2d3c
000001c0: a3fb 643d 036e 323e 07cc b23d 7ff8 893d
000001d0: cc45 e23d b010 ccbb d0f7 803c 636a a2bd
000001e0: 6145 6d3c af03 aa3d aaf2 fd3d 16c8 c53d
000001f0: a589 873c e5f8 633d d4f4 d3bc 7ff3 093d
00000200: ab05 853d 9b02 0bbd eb0f e53b 8e61 be3b
00000210: 68d7 0abd e908 13be 8ba6 24bd e404 91bd
00000220: 0e47 cdbc bc0a 0fbd 36d9 72bd aceb cc3d
00000230: b8bb 8b3c 91bc ecbc af9d 68bd f14e 48bd
00000240: a3b5 fcbd 9a30 803d 1c79 16be 858d 333d
00000250: 5208 4dbd 1ef2 5c3c 2cbc d2bd 165a f1bd
00000260: 00dc b73d c7a7 053e de98 00be 9fee 7e3d
00000270: db2e c13d 35c9 cfbd d87f 06be a64e 1ebd
00000280: 008f dd3d bd33 f7bd f3c2 103e b11e 453d
00000290: d0e2 90bc 03e6 03be f8df 22bd d7f0 d43d
000002a0: aeba 8b3d e92b 493d bbc6 223d 58eb dabd
000002b0: 5d70 cd3c fb72 8eba b632 14be a912 443d
000002c0: db70 8cbd 031e 453d 65b8 c0bd 5cea c4bc
000002d0: 8ef9 8c3d 455c 08bd 33a6 7abc e1d9 b93d
000002e0: bf5c 03bd b237 49bd bb11 65bd 4567 d3bd
000002f0: 7fc1 1f3d fb01 363d fb46 ab3d b801 29bd
00000300: 9a8b 00bc 06a2 a53d d9a5 063e f62b 26be
00000310: e4da b13d f8f1 01bd 9dcc 1fbd bd64 0f3e
00000320: 26bb 193b bfe1 713d d379 f13d 3ef0 0b3d
00000330: 6672 003e ccbc 06bc 6c9f b4bd e693 babd
00000340: 1a6f 953d e5dd c03d 65c1 103e 8fc4 1a3e
00000350: 43d8 02be 1e66 c73d e161 413b f802 553d
00000360: 35ba fcbc c560 1d3c 28f3 c83d aa6c d5bc
00000370: 777e 0cbd a416 153e 4c28 9dbd 65f6 f1bd
00000380: dbc3 073d f59e 653b b257 51bb 1f4e 803d
00000390: 4a0d 95bd 9108 2abe 6f90 c0bd 5758 8dbd
000003a0: d7a8 b13d 6a82 bfbd 43b1 06bd d149 a13d
000003b0: d4e2 21bc 6e6b f0bd e262 113d 17ad aebd
000003c0: 8373 3d3d f6fa aabd 9af9 543d 5ae7 d83d
000003d0: 8855 ca3d d4be 03be 3b1b 253e fede e03d
000003e0: c218 a5bd 629a dfbd a541 bc3b 369f babd
000003f0: a403 5f3d 61aa 753d ff64 9fbd 07a2 9b3d

conv1.linear_r.coeff f4 [3, 3]
-0.36288604 0.47082004 -1.048361 0.36902577 1.2147124 1.4293804 1.0498871 0.187149
-0.27924013
00000000: 33cc b9be 530f f13e b130 86bf f2f0 bc3e
00000010: b27b 9b3f f0f5 b63f b362 863f fda3 3f3e
00000020: 90f8 8ebe

conv2.h_bias f4 [2]
-0.04834327 0.047088135
00000000: 9803 46bd 7ddf 403d

conv2.linear_r.W f4 [3, 16, 2]
-0.1482135 0.13494422 0.048650965 0.20806392 0.121565685 0.10863722 0.07812854 0.29140535
-0.009781377 0.27261642 -0.039085303 0.06763656 -0.024589421 -0.036882993 0.10026011 0.13347177
-0.2450932 -0.21444505 -0.08863912 -0.20973463 0.034477714 -0.0721955 0.0680544 0.06898247
0.08745261 -0.13249138 -0.053814042 0.25954658 0.1697561 -0.14336221 -0.07481081 0.29600653
-0.051073514 0.16536641 -0.13887866 -0.31576857 0.22201261 0.07846697 -0.14164144 -0.21666661
-0.059666596 -0.0965061 0.22700997 -0.109678365 0.15700163 -0.19558863 -0.09084391 0.13185617
0.12718773 0.0911014 -0.18132441 -0.04059784 -0.006170021 -0.0021815249 0.004374827 -0.11259565
0.059732445 -0.07637261 -0.057347406 -0.2476781 0.04462466 -0.2756551 0.15156153 0.045617316
-0.27531883 0.010457404 -0.31025967 -0.13970959 -0.11242612 0.23910356 -0.29268962 0.17398503
-0.006392492 -0.13589582 -0.21990532 0.16772176 0.1093567 -0.027453147 0.013532389 -0.22101717
0.100687236 -0.05396344 -0.23750262 0.063340954 -0.29311937 0.04972253 0.111957885 0.06582559
0.015844328 -0.11941977 -0.30303288 0.1400334 -0.05479007 0.17918022 0.046408698 0.15381862
00000000: 48c5 17be d12e 0a3e 3c46 473d b50e 553e
00000010: 6ef7 f83d 317d de3d db01 a03d 1533 953e
00000020: 1242 20bc 6194 8b3e e917 20bd 0985 8a3d
00000030: c16f c9bc 9f12 17bd 2c55 cd3d d3ac 083e
00000040: b6f9 7abe 7c97 5bbe 6d88 b5bd adc4 56be
00000050: 8138 0d3d 3cdb 93bd 1b60 8b3d ae46 8d3d
00000060: 5b1a b33d d2ab 07be 1d6c 5cbd 4ae3 843e
00000070: 8bd4 2d3e 8bcd 12be 6936 99bd 2b8e 973e
00000080: 7632 51bd d055 293e 3536 0ebe 6bac a1be
00000090: 4657 633e 4ab3 a03d 740a 11be dadd 5dbe
000000a0: f664 74bd fda4 c5bd 4d75 683e 0d9f e0bd
000000b0: 09c5 203e 6348 48be 5f0c babd 4e05 073e
000000c0: 803d 023e 5f93 ba3d 1bad 39be ec49 26bd
000000d0: e32d cabb eaf7 0ebb b55a 8f3b 8c98 e6bd
000000e0: 02aa 743d 3e69 9cbd 1de5 6abd 549f 7dbe
000000f0: 59c8 363d aa22 8dbe f232 1b3e 39d9 3a3d
00000100: 97f6 8cbe 8855 2b3c 5bda 9ebe 0810 0fbe
00000110: aa3f e6bd 90d7 743e 6adb 95be 2229 323e
00000120: 1c78 d1bb 4628 0bbe dc2e 61be 41bf 2b3e
00000130: 68f6 df3d 6ce5 e0bc f4b6 5d3c 5352 62be
00000140: 1c35 ce3d c508 5dbd e333 73be e7b8 813d
00000150: be13 96be daa9 4b3d 2d4a e53d 91cf 863d
00000160: f7cb 813c 5a92 f4bd 2027 9bbe ea64 0f3e
00000170: 8d6b 60bd 057b 373e 0c17 3e3d a182 1d3e

conv2.linear_r.coeff f4 [3, 3]
1.3606927 -0.32921827 1.2808349 -0.9591297 -0.7392568 -0.34799245 -0.8902985 0.33597788
-0.13415317
00000000: 2e2b ae3f 4c8f a8be 66f2 a33f 8689 75bf
00000010: ef3f 3dbf 112c b2be 9aea 63bf 4b05 ac3e
00000020: 735f 09be

fc.weight f4 [2, 2]
-0.17020582 0.6220535 0.5299851 -0.53838694
00000000: 6f4a 2ebe e63e 1f3f 1aad 073f bad3 09bf

fc.bias f4 [2]
0.18629959 -0.40985942
00000000: 52c5 3e3e 18d9 d1be
