RGCN/model/trained_model/zeroday_rgcn_1555_989-1000-1743433653.0164285.pt (torch, 18608 bytes, 8 tensors)

conv1.h_bias f4 [16]
000000 61 05 35 3d f3 86 1e 3e 44 e9 06 3d ee b3 83 3e
       0.044194583 0.15481167 0.032937303 0.25723213
000010 5b bc a7 3d 7c 9f ee 3d 22 7e bf 3d 4c 5d 8c 3d
       0.08190223 0.11651513 0.0935023 0.068537325
000020 b4 dc fd 3d 8b 0c 88 3d 9f ed ad 3d 23 48 82 3d
       0.123956114 0.066430174 0.08492588 0.06361415
000030 93 01 8d 3d a8 85 88 3e bc ca 3a 3d fb 2b 9d 3e
       0.06885066 0.26664472 0.0456035 0.30697617

conv1.linear_r.W f4 [3, 74, 16]
000000 70 0f 78 bd 0b d2 e4 bc 66 30 6b be 0b f8 f5 bd
       -0.060561597 -0.027932188 -0.22967681 -0.12010201
000010 26 01 d7 3c e3 d7 48 be c7 fb 49 be f8 48 d8 b9
       0.026245665 -0.19613604 -0.19724952 -0.00041253096
000020 01 a0 87 3c c3 ed 18 be 53 8a 2a be d9 31 49 be
       0.016555788 -0.14934449 -0.16654329 -0.19647922
000030 57 a0 85 bd b1 46 73 be 0e 3f b0 bd 80 9b 71 be
       -0.06524723 -0.23757435 -0.08605777 -0.23594475
000040 4b 9c 5a be 04 41 f7 bc 6e 3d 8e 3f 07 65 82 3e
       -0.21348684 -0.030182369 1.1112497 0.25467703
000050 5c 80 5b be bd 65 a0 3e 30 b2 3a be 7c e4 8f be
       -0.21435684 0.3132762 -0.18232036 -0.28104007
000060 d9 ce 1a be 20 40 5b be de 1e 30 be 04 5f 9c be
       -0.15117969 -0.2141118 -0.17199275 -0.3054124
000070 ac dd 7c be 52 25 9b 3d 54 c3 9f be 4a 96 3f 3d
       -0.24693936 0.07575478 -0.3120371 0.046774186
000080 a1 e2 1a bd 30 fe a5 be 4d 91 ac bd 43 fa a1 3e
       -0.037813786 -0.32420492 -0.084261514 0.31636247
000090 e8 2f 18 be a3 8c 0a be 67 ad 26 3d 0e 0a 88 bd
       -0.14862025 -0.13530211 0.040692713 -0.06642543
0000a0 19 c9 a0 be a4 96 9b bd 6b f6 40 3e 1b 0b a4 3d
       -0.31403425 -0.07597092 0.18844001 0.08009931
0000b0 ce 22 28 be 35 2d 9c 3e a7 b9 23 bf 27 74 92 3e
       -0.16419527 0.3050324 -0.6395516 0.28604242
0000c0 0c e7 9b 3e c5 99 6b 3e f2 7e c7 be ae 3c 03 3d
       0.30449712 0.23007877 -0.3896404 0.03204029
0000d0 41 0f 6f 3f 97 a4 d9 bd 34 7f ad 3e 23 6c a4 3e
       0.9338265 -0.10627096 0.3388611 0.32113752
0000e0 12 a3 a0 3e bb 8f 9d 3e c4 cd 42 3e 7b 95 f9 3e
       0.31374413 0.3077372 0.19023806 0.48746857
0000f0 a6 16 cc 3e 52 c8 c4 3d 61 d1 2a 3f c9 db 36 3e
       0.3986103 0.096085206 0.66725737 0.17857279
000100 fd a9 8c 3d d2 f6 84 3d ce 18 b6 be b9 48 b3 be
       0.0686836 0.0649239 -0.355658 -0.3501642
000110 af 23 6d 3c 73 25 4c bf 37 95 af bd 43 56 01 3e
       0.01447384 -0.7974464 -0.08573382 0.12630562
000120 0f c6 ec 3d 46 5f 10 bd 99 7d 2a be a5 5d 69 3c
       0.11561214 -0.03524711 -0.16649474 0.014243518
000130 a3 ed c3 3b 93 44 c9 be 3e 09 ee 3d b8 ab c7 be
       0.0059792562 -0.3931013 0.116228566 -0.38998199
000140 42 89 20 3d 6e a2 b3 bd 8d 5a 5d 3e 6d 82 fe bd
       0.0391934 -0.087712154 0.21616574 -0.124272205
000150 a3 52 72 bd e0 8b 2f 3d 40 fd 17 3d e7 f2 0d 3e
       -0.05916084 0.042858005 0.037106752 0.13862191
000160 3e 6c 29 3d d1 10 b0 3d 37 58 31 3d 93 45 fb 3d
       0.041362993 0.085969575 0.04329702 0.122691296
000170 60 59 04 3e 00 f9 a2 bd 1f cd 6e 3e 9f 3a a2 bc
       0.12924719 -0.07957649 0.23320435 -0.019803343
000180 f2 02 82 3e 6f 73 64 be 1c 3c cd 3d be c6 c7 bd
       0.25392872 -0.2230966 0.100212306 -0.09754704
000190 8d 6b c4 be 59 31 04 3e f3 ba c8 3d 0b 77 97 be
       -0.38363305 0.1290945 0.09801283 -0.2958301
0001a0 e9 cc 2d 3e 18 34 d8 3d 1a fa 4a be 98 ba 43 3e
       0.16972698 0.10556811 -0.19821969 0.19114149
0001b0 6a 6b 4b 3e 27 19 8d bd 81 58 37 bf 5d d6 34 be
       0.19865194 -0.06889563 -0.7161942 -0.17659898
0001c0 d0 a8 12 bc 7d eb d5 3c c8 b4 aa bf 31 0a 60 be
       -0.008951381 0.026113266 -1.333642 -0.21878888
0001d0 70 60 7e 3d 32 bc 6c bf 81 5d e7 3c de ab 9f bc
       0.06210369 -0.92474663 0.028242828 -0.019491132
0001e0 01 40 b8 bc fe 58 b1 3b 36 dc b7 bc 37 cd 6c 3d
       -0.022491457 0.00541222 -0.022443872 0.057812896
0001f0 65 5f ca bc fa 63 b3 bd ca ef 36 3b 1e 28 49 bd
       -0.02470369 -0.087593034 0.0027913922 -0.049110524
000200 06 04 41 bd bb e1 57 3e 9e fa 10 3e 50 88 6e bc
       -0.047122978 0.21082203 0.14158103 -0.014558867
000210 6d e3 93 3e 91 f3 56 bd 21 b6 bb bd 88 71 54 bd
       0.2888445 -0.052478377 -0.09165598 -0.051866084
000220 3f d5 57 bd 4c b9 11 be 36 eb b6 bd e5 fd 83 be
       -0.0526936 -0.14230841 -0.08931582 -0.25779644
000230 96 53 ab bc 15 02 98 bd 38 e2 dc bd 3b d0 c6 bd
       -0.02091388 -0.07422272 -0.10785335 -0.097076856
000240 0d 40 3d be 28 da 91 bd bc c9 41 3c 64 c9 de bd
       -0.18481465 -0.07121688 0.011827882 -0.10878256
000250 e9 2c 3a 3e 28 f6 bb bc 8d 7f 45 3e 5f d9 fb 3d
       0.18181194 -0.022944525 0.19286938 0.122973196
000260 93 3b b8 be 1a de 03 3e b0 c4 07 3e 6a 9e dc be
       -0.35982952 0.12877694 0.13258624 -0.4308961
000270 7f 14 4f 3d 9d ab d7 bd 3f 4f bb 3e 62 10 23 bf
       0.050556656 -0.105307795 0.36583897 -0.63696873
000280 cc 7f 3d 3f ba cf 4b 3f 6c a4 64 bc 4e b0 33 be
       0.7402313 0.7961384 -0.013955217 -0.17547724
000290 da ca bb be 11 27 b2 3d f1 14 c4 be ec a2 d1 be
       -0.366782 0.086988576 -0.38297227 -0.40944612
0002a0 05 8d 7d be 58 b1 92 be 10 79 c8 be 4a 38 1a 3f
       -0.24760826 -0.28650928 -0.39154863 0.6024214
0002b0 c7 37 43 3f 05 09 bf be 44 f2 03 bf cc 80 56 be
       0.76256984 -0.3731157 -0.51541543 -0.2094757
0002c0 f0 3e 47 be 1c 5a 40 bd 0d 92 82 3f 29 c8 7a 3e
       -0.19457603 -0.046960935 1.0200821 0.24490418
0002d0 89 7e 3b bf 42 26 58 be e2 e1 dd 3b 4b ba a8 3d
       -0.7323995 -0.21108344 0.006771312 0.082386576
0002e0 a7 b0 77 be 53 3f c0 3d 63 01 15 3e 0c 3b 96 bd
       -0.24188481 0.09387078 0.1455131 -0.07335481
0002f0 2d d0 ba 3d 3b 58 bd 3d d4 75 5d bf 34 ef da 3d
       0.09121738 0.09245344 -0.86507916 0.106901556
000300 bc 05 a0 bd fd 1f 09 be 88 bd 57 be 6d f3 60 be
       -0.07813594 -0.13391109 -0.21068394 -0.2196786
000310 4d 80 94 bd 2f c0 84 bd 44 cf 1e bd 25 f8 56 bd
       -0.07251034 -0.064819686 -0.038771883 -0.052482743
000320 3c a8 19 3b 62 54 1c be a4 5d 48 bd e8 87 8f bd
       0.0023446223 -0.15266564 -0.048917428 -0.07008344
000330 c7 ed a3 3a e2 29 ec 3c 44 ce 60 3d 8a 26 38 bd
       0.0012506776 0.028828565 0.05488421 -0.04495863
000340 30 b6 5b bf 76 61 5d be 8d d9 45 3e cd 0a 76 3d
       -0.8582487 -0.2161921 0.1932127 0.060068894
000350 00 d2 69 bf c5 37 30 be 32 93 61 3c 89 8c e0 bc
       -0.9133606 -0.17208774 0.013768004 -0.027410762
000360 99 9c 51 be 8a 54 00 3d 6f 48 9a bc 45 c2 8d bc
       -0.20469894 0.031330623 -0.018833367 -0.017304549
000370 4a 77 8f 3c d4 17 52 bd 09 e8 1a 3c 56 8c ad bd
       0.017512936 -0.051292256 0.009454736 -0.084740326
000380 b2 ff 9b 3f f8 ad d9 3e 79 66 6d 3e 5c 8e 9b bf
       1.2187407 0.4251554 0.23183621 -1.215282
000390 86 44 c0 3f bf 5f 28 3e d0 97 36 3f 9a 17 59 be
       1.5020912 0.16442774 0.713254 -0.2120041
0003a0 74 5d 7f bf 4c 1f 85 be 6c ac 1a 3f c7 77 b8 3f
       -0.99751973 -0.2600044 0.60419345 1.4411553
0003b0 82 01 7a 3f f9 da 87 bf ad a9 cb 3e 2f c2 bb bf
       0.9765855 -1.06137 0.3977789 -1.4668635
0003c0 ef f5 bb 3d 06 18 44 bc c9 d6 f8 3e 39 ca 1f bf
       0.091777675 -0.011968618 0.48601368 -0.6241794
0003d0 44 da 59 3d 0e d6 fc 3e d1 eb 2d bc 38 a8 94 3b
       0.05318667 0.4938206 -0.010615305 0.004536655
0003e0 f9 f1 b4 bc ce 22 98 bc b5 0f fe bb 31 81 2a 3d
       -0.022088038 -0.018571284 -0.0077533373 0.041627113
0003f0 17 f9 91 3d de 0d 98 3e 4d 84 88 bd 5e 9b b4 bc
       0.07127588 0.2969808 -0.06665859 -0.022046741

conv1.linear_r.coeff f4 [3, 3]
000000 40 b7 1a 40 d2 3d 1e c0 3d 07 00 40 e7 7c b8 bf
       2.4174347 -2.4725232 2.0004418 -1.4413117
000010 c4 45 84 3f 1a da 7d bf 29 4c bb 3f 43 c1 fd 3e
       1.0333791 -0.9916092 1.4632617 0.4956151
000020 b8 3d 2b 3f
       0.6689105

conv2.h_bias f4 [2]
000000 cd a5 3d 3e 0f 7c 37 be
       0.18520279 -0.17918418

conv2.linear_r.W f4 [3, 16, 2]
000000 b0 6f e6 be 9c 14 d2 3e a2 ce 15 bf 0f 38 94 3e
       -0.45007086 0.4103135 -0.5851842 0.2894902
000010 59 52 ec 3e 85 fc 18 bf 97 fc 4a 3f e4 92 21 bf
       0.46156576 -0.59760314 0.7929167 -0.6311476
000020 58 19 93 be b6 8b 10 3f 7f 48 4e 3f 77 31 eb be
       -0.28730273 0.5646318 0.8057937 -0.45936176
000030 0c 5e c9 be 93 54 19 3e 04 54 6d be 1e bf 8c 3e
       -0.39329565 0.14973669 -0.2317658 0.2748956
000040 11 4e 8c be 2d cf 92 3d e2 3f b6 be ed bf 1a 3e
       -0.2740331 0.07168422 -0.35595614 0.15112276
000050 b0 6d c2 be 44 9e a0 3e e0 93 bd bd dc e9 96 3e
       -0.3797431 0.31370747 -0.092567205 0.29475296
000060 8b 5b c0 be 1a 93 19 3f ca 23 c1 bd 55 af 75 3e
       -0.37569842 0.59990084 -0.09430654 0.23992665
000070 37 43 10 be e4 21 28 3e 2c a9 5f be 80 30 c7 3e
       -0.1408814 0.16419178 -0.21841878 0.3890419
000080 34 fe ba be 87 5f 92 3e 42 79 85 bf 96 d9 5b 3f
       -0.36522067 0.28588507 -1.042763 0.85878885
000090 f4 2d 2e 3f 74 44 23 bf b3 39 0d bf 02 54 26 3f
       0.6803887 -0.63776326 -0.5516617 0.64971936
0000a0 ba f9 96 3e c4 3a 2d bf c1 14 4d 3f fe e8 80 bf
       0.294874 -0.67667794 0.8010979 -1.0071104
0000b0 5d af 97 3c 43 a8 a3 3e 85 de b8 bc d2 19 1f be
       0.018516237 0.3196431 -0.022567043 -0.15537193
0000c0 fb 5a a8 be ac e7 3c 3e 21 99 37 be 3c 23 1f 3e
       -0.32881913 0.18447751 -0.17929508 0.15540785
0000d0 9c df 61 be 7b 52 55 3e cc c6 40 3e 7c d7 4a be
       -0.22057956 0.20832245 0.18825835 -0.19808763
0000e0 78 e2 08 bf 1f 34 26 3f 6d f5 7a bf 8a 9b 77 3f
       -0.53470564 0.6492328 -0.9803074 0.9672171
0000f0 97 21 3e 3e 1c b6 a6 be 45 f9 c9 bf 26 7e b8 3f
       0.18567501 -0.32560813 -1.5779196 1.4413497
000100 4d bd 2b 3f 3d 2d 22 bf c7 82 c4 bc eb 73 c7 be
       0.67085725 -0.6335028 -0.02398814 -0.38955626
000110 e7 83 74 bd 39 80 72 3e b0 95 22 bf d3 ab 69 3f
       -0.059696104 0.23681726 -0.63509655 0.9127781
000120 a9 08 f3 3e 8f 80 43 bf a8 05 15 bf 3d 13 17 3f
       0.47467545 -0.7636804 -0.58211756 0.5901373
000130 d2 3e 5d 3e aa 76 ac bd 1e 10 02 3e 01 be 0d bd
       0.21605995 -0.08421071 0.1270146 -0.03460503
000140 5b 17 bb 3e 7b d8 40 3c 4e 60 77 3e b4 b8 ef 3d
       0.36541256 0.011770363 0.24157831 0.11705151
000150 60 1c e5 3b 03 a6 87 bc e0 10 70 3e d4 e3 eb be
       0.006991908 -0.016558653 0.23443937 -0.46072257
000160 36 75 ec 3e ed 62 ab be 03 23 e0 be 5a 85 df 3e
       0.46183175 -0.33473912 -0.43776712 0.43656427
000170 36 49 e7 3e a9 21 0e bf f8 fd bb be 7b e7 cb 3e
       0.45173043 -0.5552011 -0.367172 0.39825043

conv2.linear_r.coeff f4 [3, 3]
000000 94 85 b3 3f 91 a7 06 3f 95 c2 01 c0 89 2d a9 be
       1.402514 0.52599436 -2.0275013 -0.33042553
000010 ea b7 9b bf d7 fd d8 bf 7d a1 53 bd 94 95 36 bf
       -1.2165501 -1.6952466 -0.05166768 -0.7132199
000020 40 b7 73 3e
       0.23800373

fc.weight f4 [2, 2]
000000 cd 46 e4 bf ec 97 ce 3f 4d 3b c3 3f ad b5 04 c0
       -1.7834107 1.6140113 1.5252472 -2.0735886

fc.bias f4 [2]
000000 1e b7 ec 3e eb dd 41 3f
       0.46233457 0.75729245
